checkpoints/model_relu.pth (torch, 93015 bytes, 6 tensors)

ESPCN_layer.0.weight f4 [64, 1, 5, 5]
000000 96 fe 24 3d 8f 06 d6 3d d8 b4 05 3e 64 46 0c bd
       0.040281855 0.1045047 0.13057268 -0.034246817
000010 57 ee bd bd be 0b af 3d 0c b3 47 3d c3 1b f0 bd
       -0.09273975 0.085471615 0.048754737 -0.11724045
000020 ea c6 2f bd da 6e 7e 3d 5c 83 27 bd 14 2f 28 be
       -0.04291431 0.062117435 -0.04089676 -0.16424209
000030 9e 3e 28 be 4e 12 32 3e a4 01 62 3d ad aa 08 3e
       -0.16430137 0.17389795 0.055177346 0.13346358
000040 34 90 12 3e 06 8b cc 3d 52 e9 0d be 4d f9 8f bd
       0.14312822 0.09987454 -0.13858536 -0.07029972
000050 97 67 b3 bc 92 19 b6 3d fb a5 65 bb 67 cb c7 bd
       -0.021899981 0.08891596 -0.003504156 -0.09755593
000060 8d 01 2b be e0 e1 69 3d ed 12 b7 3d ad 0a fd bc
       -0.1669981 0.057100177 0.08939157 -0.03088888
000070 da fd 92 3d 3b 5b 17 bd 0a 3c a4 bd d0 f8 1a be
       0.071773246 -0.03695224 -0.08019264 -0.15133977
000080 d8 81 0f bd 5d c4 44 3e b7 a5 ed 3d 3e a6 ea bd
       -0.035035938 0.19215532 0.11603873 -0.114574894
000090 6a c4 20 be 9d e5 37 bd 16 dd 46 3e cf 90 d4 3d
       -0.15699926 -0.04489671 0.19420275 0.103791825
0000a0 0b 3e 29 3e ef ed 87 3c 88 41 e9 3d 55 10 51 3c
       0.16527574 0.016592948 0.11389452 0.0127602415
0000b0 b1 1a 09 be cb 54 06 3e 13 b1 98 bc f9 a0 1c 3e
       -0.13389088 0.13118283 -0.018639123 0.15295781
0000c0 76 13 d8 bd 4b bc e8 3d 50 8d 20 3e 44 aa 11 3e
       -0.10550587 0.11364039 0.15678906 0.14225107
0000d0 c2 9f 3f bd 25 b7 83 3d 52 3a 11 3e d9 b1 36 3d
       -0.046783216 0.064314164 0.14182404 0.044603202
0000e0 b6 6c c4 3c c6 99 27 3e 4b 41 35 be 3e c7 00 be
       0.023977619 0.16367254 -0.17700689 -0.12576005
0000f0 aa 24 05 3e 81 1c 04 be 4d 1a 4a 3e b2 23 3d be
       0.13002267 -0.12901498 0.19736595 -0.18470648
000100 3e e4 de bd 25 51 09 3d 48 41 2d be a6 c5 48 3e
       -0.108833775 0.03352465 -0.16919434 0.19606647
000110 33 e2 61 3d d3 1e 49 bb b4 d0 37 3d 96 ad b1 bd
       0.05514736 -0.0030688539 0.04487677 -0.08675687
000120 b1 ca a6 3d 8e 9f e0 3d 36 cb 04 be a6 f9 af bc
       0.08144129 0.10967933 -0.12968144 -0.021481346
000130 ad 11 f6 3d 73 ec 14 3d dc 24 d4 bd d4 bf af 3d
       0.1201509 0.036358308 -0.10358593 0.0858151
000140 3c a4 57 be ba 1a db bd c2 c4 8e 3d 21 05 21 3e
       -0.21058744 -0.10698457 0.06971122 0.15724613
000150 bf 93 02 3e 29 98 12 be 66 1f 78 bd 8b a5 bb bd
       0.12751673 -0.14315857 -0.06057682 -0.09162434
000160 b0 09 cc 3d 72 99 06 3e 51 75 05 bd 7a b7 1d 3e
       0.09962785 0.13144472 -0.032582585 0.15402022
000170 5c 5a 58 bd cc 43 fd bd 3d b7 0c be c7 cb 19 3d
       -0.05282055 -0.12366447 -0.13741775 0.037547853
000180 65 63 12 3e 0d 68 2e bc 43 e8 36 be 9f e1 c6 3d
       0.14295729 -0.010644925 -0.17862038 0.097110026
000190 0c 75 89 3c 65 01 b4 bc c9 97 74 bd a5 f6 29 3e
       0.016779445 -0.021973321 -0.059715066 0.16597994
0001a0 23 00 a7 3d 03 f0 94 bc 06 55 a2 bd eb d3 89 3e
       0.08154323 -0.018180853 -0.07926373 0.26919493
0001b0 fb 81 11 3c d1 15 9f bd 1b d1 90 bd fc f9 33 3e
       0.008881087 -0.07767833 -0.07071134 0.1757583
0001c0 32 bc b6 bd b4 a9 bf bb 46 2e d2 3d c1 10 db bd
       -0.08922614 -0.0058490876 0.10262732 -0.10696555
0001d0 d6 a2 52 3d b0 e8 2b be d3 d5 34 bd 16 23 a3 bd
       0.051424824 -0.16787982 -0.04414923 -0.079656765
0001e0 92 17 bf bd 08 bb 13 3e 40 c6 48 bd be 39 03 3e
       -0.093306676 0.14426816 -0.04901719 0.12814996
0001f0 71 c0 8e 3d 48 28 12 be db ec 0d 3e 9a 66 7b 3c
       0.06970299 -0.14273179 0.13859884 0.015344286
000200 d7 4a 81 3b 7e aa 3f bd 82 c2 37 3b f0 28 30 3e
       0.003945689 -0.046793453 0.002803952 0.17203116
000210 da b7 da 3d bc 24 25 bc 87 91 f7 bd d3 2a 36 3e
       0.10679598 -0.010079559 -0.12088304 0.17789774
000220 80 f1 17 3e 47 20 53 3e b8 21 c7 3b bc ef 24 bd
       0.14838219 0.20617782 0.0060770176 -0.04026769
000230 7f 97 89 3c 7f 0a 1b be d0 9e ed 3d ef af 3f bd
       0.016795872 -0.15140723 0.11602557 -0.046798643
000240 9e 63 a4 bd 9d 59 8a 3d 1e a8 12 be 81 4c 3d be
       -0.08026813 0.067553736 -0.14321944 -0.18486215
000250 50 8d a4 bb 84 3a ed 3d 56 41 a2 3d a7 0b 46 be
       -0.0050217286 0.115834266 0.07922618 -0.19340383
000260 18 16 84 bd 0c bb 5f 3d 04 db 1f be 52 48 52 be
       -0.064495265 0.05462174 -0.15610892 -0.205354
000270 fa 62 93 3d e5 0f f3 3c 4a ea 29 bd e2 31 0e 3e
       0.07196613 0.029670665 -0.0414832 0.13886216
000280 c7 b7 f6 bc 2d 70 2d 3e e9 94 db bd c7 92 a8 3d
       -0.030116929 0.16937323 -0.10721762 0.082311206
000290 a8 1f dc bd d2 14 17 3d 70 cf 55 3d f7 01 09 3e
       -0.107482255 0.03688509 0.05219978 0.13379656
0002a0 fe 38 c5 3b 7e c6 41 bd 61 f1 13 3e 60 79 39 be
       0.006018757 -0.047308438 0.14447547 -0.18112707
0002b0 c2 f0 0b 3e a8 db fd bd 81 83 2a 3e 0b af d2 bd
       0.1366606 -0.12395412 0.16651727 -0.10287293
0002c0 9f 3c 6d bc a6 a4 76 3d d7 25 86 3d 61 b7 b6 3d
       -0.014479785 0.060215615 0.06550186 0.089216955
0002d0 c8 ee ed bd d7 2e 06 3e 6a 48 9f 3d 02 f8 c8 3d
       -0.116178095 0.13103805 0.07777484 0.09812929
0002e0 35 d0 82 bd 18 81 1c be 8c 51 0a 3e 1e 75 22 3e
       -0.063873686 -0.1528362 0.1350767 0.15864989
0002f0 dd 1c dc bc a2 36 37 3e 06 3b df bc 81 e9 e4 bd
       -0.026869232 0.17891935 -0.027249824 -0.1117735
000300 24 28 40 3e 6f da 54 3d a5 02 c2 bd 7c 8f 37 3e
       0.18765312 0.051966127 -0.09473161 0.17925829
000310 b9 4b ba 3d 8c d7 3c be e8 f2 d9 bd bc 66 e5 3c
       0.09096474 -0.184416 -0.10642034 0.02800309
000320 07 b1 55 3d db d0 31 be 47 ce ce bd 7f d3 07 be
       0.05217078 -0.17364828 -0.10097938 -0.13264273
000330 d7 fc a9 3b 23 99 28 3d 10 60 54 bd d3 da 9f bd
       0.0051876116 0.041161668 -0.051849425 -0.07805409
000340 c3 0c 4b bd eb 2a e7 3d ba 02 7f 3c cd fc 9d 3d
       -0.049572717 0.11287483 0.015564615 0.077142335
000350 c3 66 1b 3e e3 4f 9b 3d f4 11 f4 3d a9 67 bf 3d
       0.15175919 0.075835966 0.11917487 0.093459435
000360 75 26 97 3d fd 9d 27 be 5d 76 c1 3d d3 b2 b1 bd
       0.07380382 -0.16368861 0.09446404 -0.08676686
000370 4b 75 06 3e b9 38 3e 3e 93 68 b1 3d f2 f5 8d 3d
       0.13130681 0.18576325 0.08662524 0.06931676
000380 d4 3f e2 3c f4 0c 1a 3e e7 ec 9d 3c 31 ea c8 3d
       0.027618326 0.15044004 0.019278003 0.098102935
000390 cc b0 eb 3d 06 5c f6 3d e3 16 13 be 85 74 1a 3e
       0.11508331 0.12029271 -0.143642 0.15083511
0003a0 14 7e 47 be 02 7d 85 bd 59 90 95 3c 86 e1 ca 3c
       -0.19481689 -0.06517984 0.018257307 0.024765741
0003b0 1a bf 7b 3d 3a b5 1b be 45 dc cd 3d da 24 3a be
       0.061461546 -0.15205851 0.10051779 -0.1817812
0003c0 07 79 1e 3d 53 28 e6 3d 98 33 ef 3b 9b 41 3a bc
       0.03868964 0.1123816 0.0072998516 -0.011368181
0003d0 aa f5 49 bd 7f 68 a9 bd e3 a3 9b bd 20 b7 9b 3c
       -0.04930655 -0.08271884 -0.07599618 0.01900822
0003e0 43 38 32 be 3d 90 6b bd 19 3d f5 3d 09 e0 2c 3d
       -0.17404275 -0.057510603 0.11974544 0.042205844
0003f0 72 bf 08 3d 3b 99 dd 3d c2 99 e6 3b 44 4a 06 3e
       0.0333857 0.10820242 0.0070373723 0.13114268

ESPCN_layer.0.bias f4 [64]
000000 65 a7 70 3d 22 f6 ab bc ef d7 ba 3d 34 31 c1 bd
       0.05875339 -0.020991389 0.09123217 -0.09433213
000010 00 c6 f5 3d bc ed 3b 3d 18 b0 3d bd 93 6e c8 3d
       0.12000656 0.045881018 -0.046310514 0.09786715
000020 b6 15 17 3e 6a 17 25 3e 21 61 08 be b5 85 be 3d
       0.14754376 0.16122213 -0.13318302 0.09302846
000030 b2 80 cb 3c 6e e8 0d 3e 59 fe 2e bd 22 a0 0d 3e
       0.02484164 0.13858196 -0.042723034 0.13830617
000040 1e 55 fa 3d 61 4a 30 3e 3e dc c1 3d 5f b0 f5 3d
       0.12223266 0.17215873 0.09465836 0.11996531
000050 38 cf a3 3d a0 bc 88 bd 5b 0e 1c 3e ca 54 2d bd
       0.07998508 -0.06676602 0.15239851 -0.04231719
000060 33 c8 5f 3d c2 eb 95 bc 63 da 7c bd 48 27 3d 3e
       0.054634284 -0.018300895 -0.061731707 0.18472016
000070 13 63 30 3c 62 2b a5 3a a1 8b 30 3c 73 a9 04 3e
       0.010765809 0.001260143 0.010775478 0.12955265
000080 ca 09 d6 3b 29 67 15 3e e8 f0 62 3d 17 58 10 3e
       0.0065319287 0.14590134 0.055405527 0.14096104
000090 9f 1a f1 3d 44 53 fb 3d f4 24 99 3c 9e 2f c2 3d
       0.11772656 0.12271741 0.018694378 0.094817385
0000a0 2a 84 e4 3d 13 2b 1d 3e 10 b0 ad bc c8 17 95 3d
       0.11158021 0.15348463 -0.021202117 0.072799265
0000b0 c6 08 15 3e 1b 6c a1 3d ff 9b fc 3c 52 49 53 bd
       0.14554128 0.078819476 0.030836103 -0.051583596
0000c0 7d 7e 0b bd 6e 2d 1c 3e b2 16 bb bd 00 94 54 bd
       -0.034056176 0.15251705 -0.09135188 -0.051898956
0000d0 27 c5 c3 bd f8 ed 4f bd 7f 5b 67 3c f5 e8 1b 3e
       -0.09559088 -0.050764054 0.014120935 0.15225585
0000e0 19 e7 c7 3c ed 4e 22 be 64 de 14 3e a4 96 ad bd
       0.024402188 -0.1585042 0.1453796 -0.08475998
0000f0 1a c6 ba 3d f0 e7 0d be 98 62 22 3e 38 ff c4 3a
       0.09119816 -0.13858008 0.15857923 0.0015029674

ESPCN_layer.2.weight f4 [32, 64, 3, 3]
000000 78 c8 e3 3c 17 79 d7 bc 39 b9 7d 3c 93 d9 2b 3d
       0.027805552 -0.026302857 0.015486055 0.04195554
000010 84 1e b6 39 61 91 17 bd b1 9c 25 bd b1 c7 20 3d
       0.0003473648 -0.03700388 -0.040432636 0.03925294
000020 55 f9 e9 3c e8 01 1c 3d 88 c9 9f 3c d6 c7 22 bd
       0.028561274 0.038087755 0.019505277 -0.03974136
000030 eb 05 26 3d 6c 7a c6 3c 1a 20 87 3a e6 12 74 3c
       0.040532988 0.024228297 0.001030925 0.014897084
000040 39 30 18 bd e1 3e 29 bd ed 73 83 3b cb 38 11 3d
       -0.037155364 -0.04131973 0.004011622 0.035454553
000050 5c 7f 08 3d ce ad 05 bd 10 45 cb bb dc b9 b5 39
       0.033324584 -0.032636456 -0.0062033013 0.00034661486
000060 83 fd a4 3c fd e1 f1 3b ac 5c 06 3c 28 18 d8 bc
       0.020140415 0.007381676 0.008200806 -0.026378706
000070 3b 41 58 3c e9 f8 5b 3d f2 7d 0c 3d 32 f9 f4 bb
       0.013199146 0.053704176 0.0342998 -0.0074759955
000080 87 c1 e5 bc 89 de d7 bc e0 b2 1d 3d f7 e4 85 3d
       -0.028046383 -0.02635123 0.038500667 0.06537812
000090 fe b1 49 bc 9a d4 e4 3c 63 82 0d bd f1 17 b3 3c
       -0.012310503 0.027933408 -0.034548175 0.021862002
0000a0 b7 84 df 3c 17 85 d6 bc 9f db d7 3b 17 2f f2 3c
       0.027284963 -0.026186509 0.00658746 0.02956347
0000b0 59 82 20 bd 0d 1d a0 bc bb cb 2b 3d 66 01 fe bb
       -0.03918681 -0.019545102 0.04194234 -0.0077516316
0000c0 85 16 82 3d cc 80 4c 3d a7 ff 7d 3d b7 8b 2e 3d
       0.063519515 0.049927518 0.062011387 0.04261371
0000d0 cb e3 ec 3c 44 5a 79 3b 02 f0 c4 bc f9 32 11 3b
       0.028917214 0.0038048187 -0.024040226 0.0022155626
0000e0 d4 dc 5b bc af 61 1c bd a4 3b 10 3d fb 35 e6 bc
       -0.013419349 -0.038179096 0.035213128 -0.028101912
0000f0 de 3b 99 3c a9 c6 3f 3d f2 30 4c bc 74 b9 d7 bc
       0.018705305 0.046820316 -0.012462841 -0.026333548
000100 de 45 02 3d 7e 55 11 3c 2f f0 2d 3d 71 7a 9d 3c
       0.03180491 0.008870481 0.042465385 0.019223424
000110 78 b3 e1 3c 04 f7 d0 3c f6 18 bd 3b 31 a3 04 3c
       0.027551398 0.025508411 0.005770798 0.0080955485
000120 dd 71 dc bc 58 dc 16 3d 0a ea e6 bc fb b8 02 3d
       -0.026909763 0.03683123 -0.02818777 0.031914692
000130 ec 15 f9 bb 94 3d 9a bb 78 d7 24 bd fc 32 b9 bc
       -0.0076014902 -0.0047070477 -0.04024455 -0.022607319
000140 d1 9a 20 bc d5 86 1d 3d 28 b7 9b 3c 18 17 25 bc
       -0.009802536 0.038458664 0.019008234 -0.010076307
000150 ed d8 7d ba 8f 40 e9 3b ea 33 2b bd 83 dc c4 3c
       -0.00096835085 0.0071182917 -0.041797556 0.02403093
000160 d2 c3 b6 3c 21 ae c6 bc 33 0e 13 3d 12 f9 03 bd
       0.022310171 -0.024252953 0.035902213 -0.032219954
000170 81 21 7e 3c c8 20 f9 3b e0 6e 2f 3d c0 f3 b3 3c
       0.015510918 0.007602785 0.042830348 0.021966815
000180 de 06 d1 3c 95 f2 24 3d 8e 64 94 bb 47 a2 cd ba
       0.02551597 0.040270407 -0.0045285886 -0.0015688621
000190 cf c0 26 3c 8a 43 13 3d ae 19 0f 3d db bd a6 ba
       0.010177805 0.035953082 0.0349366 -0.0012721376
0001a0 3a 7b 09 bd 65 ca 25 bb 44 fc 2c bd e4 ef 49 bd
       -0.033564784 -0.0025297638 -0.042232767 -0.049301043
0001b0 0f 42 ca 3c 2d fa e6 bb 3f 73 25 3d b0 da 02 bd
       0.024689702 -0.0070488662 0.04039311 -0.031946838
0001c0 06 55 a4 bc 45 18 2c bd f0 0f 08 bd 30 11 8a bc
       -0.020060074 -0.042015333 -0.033218324 -0.016853899
0001d0 ff 24 14 bd 64 4b c6 bc 4b 67 24 3d 4c 3c 80 bc
       -0.036168095 -0.02420587 0.04013757 -0.015653752
0001e0 97 ed a5 3c 40 8d 5f 3d 0a a1 e1 bc 44 80 c0 bc
       0.020254893 0.054578066 -0.02754261 -0.023498662
0001f0 18 31 40 3d 5d e0 07 3c 14 47 9c bc 7d 5d 26 3c
       0.04692182 0.0082932385 -0.019076861 0.010154125
000200 9a f4 37 3d 87 b4 a8 bc 43 ea 51 3d a0 c3 be 3c
       0.044911005 -0.020593895 0.0512488 0.02328664
000210 c0 fe d2 ba 0b e1 ca 3b e8 66 38 bc 7b 4a e8 ba
       -0.001609765 0.006191378 -0.0112550035 -0.0017722392
000220 20 02 b4 3b 50 2e 21 bd 9a 2b 1e bd ac 67 bd bc
       0.0054934174 -0.039350808 -0.0386158 -0.023120724
000230 16 f5 da 3c fd e9 7b bd bd f8 2c 3d 19 1e b4 bc
       0.026728194 -0.061502445 0.042229403 -0.021987008
000240 8a 3f 42 bd 6a 14 e7 ba f0 80 56 bd 17 f4 18 3b
       -0.047423877 -0.0017629985 -0.052369058 0.0023338848
000250 f6 bc 81 3c ef 0a 9e 3c 91 ca a6 3c ad 0b ea 3c
       0.015837174 0.019292323 0.020360263 0.02857002
000260 cb 34 57 bc 63 28 e8 bc 25 2c 15 bb 4c 0b 58 bd
       -0.013135145 -0.02833957 -0.0022761908 -0.05274515
000270 4b d8 29 bd 89 c2 24 3c 68 15 f3 bb d9 16 0c bd
       -0.04146604 0.010056146 -0.0074183233 -0.034201477
000280 d5 f9 04 bd a0 fb c7 3c f4 13 85 3c 94 b0 3e 3c
       -0.03246482 0.024411976 0.016244866 0.011638779
000290 f6 07 3f bc 45 3b 74 bb 4c 00 8e bc c8 e3 88 3c
       -0.011659613 -0.0037266773 -0.017334126 0.016710177
0002a0 ad d8 43 ba 6a bc bc 3c 21 1c 80 bc fe 0d 6a bd
       -0.0007470947 0.023039062 -0.015638413 -0.05714225
0002b0 e2 96 b8 bc b4 c5 8e b9 e5 54 3b 3d 9b 29 f0 3c
       -0.022532884 -0.0002723165 0.04573526 0.029316714
0002c0 88 fe aa bc 89 4e c3 bc 24 0e 27 3c c1 38 cb bc
       -0.020873323 -0.02384116 0.0101962425 -0.024807336
0002d0 bc 9b 38 bd a7 e5 37 3c 18 de 81 bc 85 71 14 3c
       -0.045070395 0.011224187 -0.015852973 0.009060268
0002e0 20 ab 3d 3d 1f bd db 3c 2b ad fd bc 9a 93 b3 bc
       0.046305776 0.026823578 -0.030966362 -0.021920968
0002f0 e7 15 4d bd 89 11 48 bd bc 48 f0 3b 19 27 3a 3d
       -0.050069716 -0.048844848 0.0073328894 0.045447443
000300 74 30 9a 3c 94 3e 7d bb 20 fa 04 3d 29 49 77 bd
       0.018821932 -0.0038642036 0.0324651 -0.060372505
000310 d2 94 89 bc 34 5b 0c 3d 95 19 0c 3d 51 29 95 3c
       -0.016794596 0.034266666 0.034204084 0.018208178
000320 ae e4 f0 3b f7 71 3c 3d 47 09 2d 3c e4 ac 26 3c
       0.0073514795 0.046007123 0.010561294 0.010173056
000330 02 0f 16 bd c6 3d d6 3b 07 47 28 3d 5c 7f 2e 3d
       -0.036635406 0.0065381257 0.041083362 0.042601928
000340 ef a5 a0 bc 91 2d c9 3c 67 79 c4 3c 1d ec c7 3b
       -0.019610373 0.02455786 0.02398367 0.006101145
000350 5b e1 70 bd 07 ed 1e bd 43 29 fc 3c 97 cd 04 3d
       -0.058808666 -0.038800266 0.030781394 0.03242263
000360 05 f3 04 bd 6f c3 b0 3c 5c 4a 2b bd 14 e7 dd 3c
       -0.032458324 0.021577565 -0.04181896 0.027087726
000370 f9 4b 46 bb 6e fa 8f 3c 90 3b c8 bc 2e 13 03 bc
       -0.0030257686 0.017575469 -0.024442464 -0.008000178
000380 e9 d9 1a 3d 5a 6a c7 bb 71 84 d0 bc 81 54 65 3c
       0.03780547 -0.006085676 -0.025453778 0.013997198
000390 11 0b 84 3b 46 ef d1 bc 03 c4 d8 3c 26 80 85 bc
       0.0040296395 -0.02562679 0.026460653 -0.016296457
0003a0 2f 24 53 bc a4 a5 ac 3b 40 b2 8a bd 9b 2e 4d bd
       -0.012887045 0.0052687693 -0.0677228 -0.050093275
0003b0 71 94 25 bc d4 a4 c0 bb 67 39 4f 3c 15 86 d3 3b
       -0.010106192 -0.005879024 0.012647963 0.006455193
0003c0 64 c9 65 3d 65 6a a9 3d a3 6d 2a bd 18 67 85 3c
       0.056100264 0.08272246 -0.041608464 0.01628451
0003d0 0e 64 88 3c 89 4f cc 3c c7 41 b7 3c e8 80 25 3c
       0.016649272 0.024940269 0.022370232 0.010101534
0003e0 4e 99 f4 3c 8f 90 8e 3c b2 3e 25 3d 83 67 95 bc
       0.029858258 0.017402915 0.040342994 -0.018237835
0003f0 99 c9 0c bc d9 89 e2 bc 1e cb ae 3a 81 ee 31 3c
       -0.0085929865 -0.027653622 0.001333568 0.010860086

ESPCN_layer.2.bias f4 [32]
000000 dc b2 11 3d e4 83 37 3c ff d7 ab bc 30 7a f1 bc
       0.035570964 0.011200879 -0.020977018 -0.029477209
000010 c1 77 fd 3c 88 b7 b3 bc 5c 7c a0 3b a9 31 1c bd
       0.030940892 -0.0219381 0.0048976373 -0.038133297
000020 ff cb 0b bd ee 03 4c bb b0 60 bc 3a a1 d8 81 bc
       -0.034130093 -0.0031130272 0.0014372077 -0.015850367
000030 e9 ca aa 3c 71 61 c5 3c f1 f3 38 bc 0b a3 0e 3d
       0.020848708 0.024094315 -0.011288629 0.03482346
000040 da 05 9d 3c ae 4e 1a 3d e4 bc 8e bb 0d 02 ca 3c
       0.01916783 0.03767269 -0.0043560136 0.024659181
000050 dd d1 69 bb 6b 34 1e 3d 2a a2 0a 3d 07 8c a2 3c
       -0.0035678067 0.03862421 0.033846058 0.01984216
000060 06 b0 5d 3b 2f eb a5 bc 33 40 40 3c 36 3a d0 3c
       0.0033826842 -0.020253746 0.011734056 0.025418382
000070 f3 c0 a3 3b a3 31 72 bb 27 fe 1c 3d eb c8 ae bc
       0.0049973666 -0.0036955855 0.038328316 -0.02133604

ESPCN_layer.4.weight f4 [9, 32, 3, 3]
000000 17 cb 23 3c 16 d6 b3 3c 7e 68 63 3d 71 67 16 bd
       0.009997151 0.02195267 0.055519573 -0.036719743
000010 6b d1 90 3d f6 91 fb 3c ed 95 bd bc 43 58 09 3d
       0.07071193 0.030709248 -0.02314278 0.03353144
000020 56 31 1d bd 00 55 da bc 54 f5 01 bc 02 12 97 3c
       -0.03837713 -0.02665186 -0.007932026 0.018441204
000030 b6 9d 69 bd e7 2c 48 3d 84 60 53 bd 93 51 52 3d
       -0.05703517 0.048870947 -0.051605716 0.051347326
000040 4e 01 89 bc 42 a8 98 3c 11 26 73 bc dc 4a 89 3d
       -0.016724255 0.01863492 -0.014840619 0.067037314
000050 b6 38 eb bb 49 1c 6a 3d a9 4b 2d bc c7 40 9a bc
       -0.0071783913 0.05715588 -0.010577121 -0.018829716
000060 e5 03 31 bd 3c 28 2d bd 4e 8c dc bc ce 69 0c bd
       -0.043216605 -0.0422747 -0.026922371 -0.03428059
000070 38 ce d3 bc b6 87 99 bb 5f a6 09 bc 45 2e ac ba
       -0.025855169 -0.0046853675 -0.008401482 -0.0013136348
000080 5c c8 5e 3d af 5e 8c bc 61 45 d5 bb 7c 5b 51 bc
       0.054390296 -0.017134992 -0.0065085148 -0.012778159
000090 91 f8 6f bd 8d eb 5c bd 78 cd 17 3d dc b2 dc bc
       -0.05858666 -0.053935576 0.037061185 -0.026940756
0000a0 bf ca 1a bd dc 0f de 3c 6a 6e 67 3c c8 ad c6 3c
       -0.03779101 0.027107172 0.014125446 0.024252787
0000b0 cc be a5 bc 6c ad f2 bc 46 e7 3a bd f8 f9 d1 bc
       -0.02023258 -0.02962371 -0.045630716 -0.02563189
0000c0 f9 10 8c bc 3c 90 50 3c 4d 30 51 3d 50 e6 62 3d
       -0.017097937 0.012729701 0.051071454 0.055395424
0000d0 0e ca 62 3c 96 c5 a8 bb b2 63 5a 3b 96 63 33 3d
       0.013842119 -0.005150507 0.0033323583 0.043796144
0000e0 c7 25 99 3b 2b 22 0b 3d 8e d3 ac 3d 7d c1 11 bd
       0.004673693 0.033968132 0.08438788 -0.035584915
0000f0 8d 96 f9 3c 5b 35 d9 bb a0 04 61 3d f0 f5 3d bd
       0.030467296 -0.006628675 0.05493605 -0.046377122
000100 8c 3f 1b 3c cd d6 5a 3c 11 f5 3a 3d 87 d8 38 bd
       0.0094756 0.013356877 0.04564387 -0.04512837
000110 4c 75 89 3c 1b 5c 3b 3d 7f e8 45 bd 28 1c 8d bb
       0.016779564 0.045742135 -0.04831743 -0.004306335
000120 50 36 aa 3c 0a 30 dd bc 19 45 44 3c b6 2b 5b ba
       0.020777851 -0.027000446 0.011979365 -0.00083607004
000130 40 30 74 3c 11 f1 67 3d b9 83 dd 3c 25 e4 ff 3c
       0.014904082 0.056626383 0.02704035 0.031236717
000140 62 30 fb bc 85 c2 e2 bc 1c e7 db bc 6f 0f 9d bd
       -0.03066272 -0.027680645 -0.0268436 -0.07668959
000150 73 25 b1 bc ef 5b 5e 3d 7c 53 e9 3c d9 7b 6b bd
       -0.021624302 0.054286893 0.028482191 -0.057491157
000160 6d c2 0b 3d 5f d4 9a 3c 19 42 a4 3c 3c a9 67 bd
       0.034120966 0.018900095 0.020051049 -0.05655788
000170 e5 03 5d 3d 30 50 8a 3c 1c 87 14 bd b6 50 21 3d
       0.053958792 0.01688394 -0.036261663 0.039383613
000180 99 81 52 3c b4 7c 82 3b f3 4f a0 3b 4e 76 75 3c
       0.012848281 0.003982151 0.004892343 0.014981819
000190 74 15 82 bd 1e 66 12 3d c9 8b 11 bd bb bf c4 3c
       -0.06351748 0.035741918 -0.0355337 0.024017205
0001a0 9d 5b 48 3d 3f 83 fb 3c b8 7d 52 3d dc 50 49 bc
       0.048915494 0.030702231 0.051389426 -0.012287345
0001b0 82 f5 91 3c 04 72 a4 bd 53 e7 8e 3b 73 74 ce bd
       0.017817263 -0.08029559 0.004361072 -0.10080805
0001c0 f5 5e 85 3b 5c 42 27 bd 6f 44 d5 3c 0c 75 66 3c
       0.0040701577 -0.04083477 0.026033608 0.014065992
0001d0 5e b2 10 bc 2a 3d 14 3d 38 5d 81 bd 7a c2 5c 3a
       -0.008831589 0.036191143 -0.06316608 0.0008421313
0001e0 a9 dd 4f bd bc 97 db bc 4d 73 4e bb c9 22 ee 3a
       -0.0507485 -0.026805751 -0.003150183 0.0018168326
0001f0 29 81 01 3d 2f 75 26 bd 0a 00 01 3d 76 b1 76 3c
       0.031617317 -0.0406391 0.031494178 0.015056958
000200 7e fa 4c 3c 10 26 5f 3d a4 ff e1 3c 38 c7 c9 bc
       0.012510894 0.05447966 0.02758772 -0.024631128
000210 9c 10 39 3d a4 2f 7b bc 0d 96 de 3c 17 34 19 bd
       0.045181856 -0.015331183 0.02717116 -0.037403192
000220 58 b1 08 bc 61 c5 a1 3b 9d a2 01 bd f1 e2 2a bc
       -0.008343063 0.0049368595 -0.03164922 -0.010430084
000230 3f a2 02 bd 87 03 be 3c 12 69 44 3d a7 45 35 bb
       -0.03189301 0.023195041 0.047951765 -0.0027659924
000240 ba 43 3f bc 8d 3e 23 3d 04 17 88 bd 48 0a df 3c
       -0.011673862 0.039854575 -0.06645015 0.027226582
000250 1b 3b 55 bd ea db 94 bc 52 0a 34 bd 77 8b fd 39
       -0.05205832 -0.01817127 -0.043955155 0.0004835983
000260 06 2f 3e 3d 5f 5f 07 3d 06 b2 3a bd 51 e9 5e 3c
       0.046431564 0.033049937 -0.045579933 0.013605432
000270 fe b5 13 be 3a 88 c3 bd 32 f6 ca 3c 0c 2b 22 bd
       -0.14424893 -0.095474675 0.024775598 -0.039591834
000280 4b df ee bc 9d 9e ea 3c 40 a4 9b bc 63 f8 32 bc
       -0.029159209 0.028640086 -0.018999219 -0.010923478
000290 3c 2b 78 3c 34 23 03 bd 9b c3 8c 3d 17 01 2c bd
       0.015147027 -0.032015994 0.06873246 -0.041993227
0002a0 e8 8b 56 bd e9 bb 42 3c 46 0f 6f bd c8 74 67 bb
       -0.05237952 0.011885622 -0.058364175 -0.003531741
0002b0 0a a6 11 bc c3 04 39 3d 2b 8e 87 bc 6f c3 2f bc
       -0.008889684 0.045170557 -0.016547283 -0.010727747
0002c0 63 1d 08 bb 74 80 be 3c 7e 29 cf bc e7 9b 96 bc
       -0.002076947 0.02325461 -0.02528834 -0.018384887
0002d0 49 1b 2e bd 12 5d 40 3a be 46 e6 bc 86 60 12 3b
       -0.04250649 0.00073380873 -0.028109904 0.0022335364
0002e0 4e 95 32 3d ba 6e 4c bc ba 48 02 3d 50 83 a7 3d
       0.04359942 -0.012477571 0.03180764 0.08179343
0002f0 64 00 32 3c 5b b0 eb bc 79 1d ed 3c a5 b0 89 bc
       0.010864351 -0.028770616 0.028944718 -0.016807863
000300 e6 51 61 3d 8e 91 2a 3d f2 28 44 bd 0c b6 55 bd
       0.055009745 0.041642718 -0.04789061 -0.052175567
000310 a3 a6 8d 3d de 0a 2f bd 3f 83 7b 39 48 c8 29 3c
       0.06916549 -0.042734973 0.00023986118 0.010362692
000320 9e 56 a0 bc 66 66 96 3d bb fe 4a 3d bc 1e d4 bc
       -0.019572552 0.0734375 0.049559336 -0.025893562
000330 23 e8 a0 bc d4 f8 ee bb 70 2b 3d bc bf 2c 51 3b
       -0.019641941 -0.007292846 -0.011546001 0.003191754
000340 c9 b6 55 bd 41 f7 13 3d 30 fb 54 3d 5a da 1e 3d
       -0.05217627 0.03612447 0.051997364 0.038782455
000350 ae 89 5d 3c a8 b9 5f bb 4c e9 3b 3c 3b 90 4e bd
       0.013521595 -0.003413776 0.0114691965 -0.050430518
000360 7c b4 70 3d b4 a2 07 3d f4 8f 46 bd b5 4c 19 bd
       0.058765873 0.03311415 -0.04847713 -0.03742667
000370 90 a6 6f 3d 5f ed 2c bd 4c 63 0d 3d 9a 95 79 3c
       0.058508456 -0.042218562 0.034518525 0.015233422
000380 29 aa 2d 3d 87 7d 3d 3d 1e 90 d2 bb a7 78 fa bc
       0.042398605 0.04626229 -0.0064258715 -0.03057511
000390 5c 4f 34 3c 95 2a 53 bb cf 56 04 3d 74 12 94 bb
       0.011005249 -0.0032221426 0.03230935 -0.0045188013
0003a0 80 87 41 3c 84 d7 1e bd 68 8a 05 3d ba fe 68 3d
       0.011812091 -0.03877975 0.032602698 0.05688355
0003b0 48 4b 53 3d a8 da a0 3d 2a 49 c8 bc 95 a6 87 3b
       0.051585466 0.07854205 -0.02444895 0.004139731
0003c0 ed 12 9e bc 05 a2 a4 bc 89 ca ca 3c 9b b0 2b 3d
       -0.019296134 -0.020096788 0.02475478 0.04191647
0003d0 7e bd 4c bd a5 40 b9 bc f7 70 9f 3c 15 65 06 3d
       -0.0499854 -0.022613833 0.019463046 0.032811243
0003e0 a7 fd 61 3d bb 21 0c 3d b7 eb e4 bc 98 e4 0c bc
       0.055173542 0.034211855 -0.027944429 -0.008599423
0003f0 32 a9 57 3d af 5a 3a 3d f3 4e 43 bd a2 10 57 bd
       0.05265159 0.04549664 -0.047682714 -0.052506097

ESPCN_layer.4.bias f4 [9]
000000 3a 8c 6a bb 9a 1c 06 3c 96 e2 19 bc 51 f9 b3 3c
       -0.0035789148 0.00818553 -0.009392401 0.02196947
000010 c4 87 6e 3c 58 f8 af bc 89 2a f9 3c 12 da 1a bc
       0.014558736 -0.021480724 0.03041579 -0.009451406
000020 46 52 b6 bc
       -0.022256028
