checkpoints/model.pth (torch, 93015 bytes, 6 tensors)

feature_maps.0.weight f4 [64, 1, 5, 5]
000000 a8 53 31 3d 72 7f ea bc 7a c4 00 bd 77 77 69 3d
       0.04329267 -0.028625224 -0.031437375 0.056998696
000010 3a b5 0a 3b 07 2b 7e 3c e2 98 6b bd 82 9c 02 bd
       0.0021165148 0.015513188 -0.057518847 -0.03188754
000020 b0 86 1a 3d dd d4 b3 3d 8e c3 d8 bc a3 b2 b4 bc
       0.037726104 0.08780835 -0.026460435 -0.022057837
000030 7a e6 15 3d ec 92 84 bc 26 98 f3 3c 4c 30 3f 3d
       0.036596753 -0.016183339 0.029735636 0.04667692
000040 ba 09 3c bd 3f 04 cc bc 76 76 d2 bd 35 6f e4 3c
       -0.045907713 -0.024904368 -0.10276501 0.027885059
000050 33 6d 93 bc f7 56 43 bd 43 ff 26 3d 7e 33 b1 3c
       -0.017996406 -0.047690358 0.04077078 0.021630999
000060 47 89 b4 bc ae 8d d2 bb f2 0b 15 bc 30 e0 47 bd
       -0.022038115 -0.006425581 -0.009097086 -0.048797786
000070 1d 56 ff bc de f1 7d 3b ed 98 5f 3d fa 69 a4 bc
       -0.031168992 0.00387489 0.0545892 -0.020070065
000080 f2 6e c5 3b e6 4f 58 3c 1b 33 b9 3d 03 cd f8 3c
       0.0060251886 0.013202643 0.09042951 0.030371195
000090 c7 ef 94 bc b1 38 6c bd 34 07 0b bd e4 85 e3 bc
       -0.018180741 -0.057671253 -0.033942416 -0.027773805
0000a0 d4 5b f2 3d 26 b9 35 bd 2b ee 72 bc 57 ec a5 3c
       0.11833921 -0.044366024 -0.0148272915 0.020254297
0000b0 46 97 05 3d 44 28 af 3b e9 9e 02 3d 83 4d 6a 3d
       0.03261497 0.005345376 0.03188983 0.057202827
0000c0 1d be 74 bd 2c 68 81 bd 2c f4 ae ba 77 6f 3c 3c
       -0.05975162 -0.06318697 -0.0013347915 0.011501185
0000d0 96 68 7f 3c 21 91 ac 3c 81 ed 8b 3d d7 3d 24 bd
       0.0155889 0.021065297 0.0683241 -0.040098038
0000e0 e6 cd 55 3d a0 26 14 bd b9 70 a0 3d 9b a6 24 3d
       0.052198313 -0.03616965 0.07834 0.04019795
0000f0 7a 9b 28 bd d8 42 a9 bc 8d f3 99 bd 05 a9 b3 bd
       -0.0411639 -0.020661756 -0.07517157 -0.08772472
000100 0d bd 8f bb 8a a2 29 3d 3c f0 01 39 54 05 ec bc
       -0.0043865503 0.041414775 0.00012391893 -0.028811134
000110 a5 94 13 3c 7b e8 19 bb 9e 54 11 bd 46 0c 0d 3c
       0.009007608 -0.0023484516 -0.035481088 0.008608883
000120 b9 35 33 bb d3 bf 8a 3c ad 4f b8 bc 1e 3b c9 bc
       -0.0027345254 0.016937172 -0.02249893 -0.024564322
000130 2f 69 a4 bc cf 6a ee bc 91 25 ba 3b d1 f3 b8 3c
       -0.020069687 -0.029103665 0.005680748 0.022577198
000140 31 2e 83 3c 10 56 c4 3c c7 d9 5c bd 06 d2 5e bd
       0.016013237 0.023966819 -0.053918626 -0.054399513
000150 22 2b e0 bb 06 73 aa 3c 63 41 b2 bb 11 ff 41 bd
       -0.0068410793 0.0208068 -0.0054399236 -0.04736239
000160 0c ce 48 3c 42 b7 86 bb f9 dd 01 3d 8b 91 a2 bc
       0.012256157 -0.0041112015 0.03170583 -0.01984479
000170 df 08 3d bd e5 a5 da 3b 4f 71 2e 3c 1d c9 a4 3c
       -0.04615104 0.006672608 0.010647132 0.02011543
000180 14 3f 19 3b 7e 99 10 bd bf 95 85 bd 9e 39 40 3d
       0.0023383545 -0.03530263 -0.065227024 0.046929948
000190 b6 b3 3f ba d5 83 0b 3d 48 d9 3c 3c 16 5d 87 3c
       -0.0007312851 0.03406127 0.011526413 0.016523879
0001a0 64 13 81 bd b2 a9 4b 3d bb fc 41 3d c8 ae 42 bd
       -0.063025266 0.04972238 0.047360163 -0.047529966
0001b0 dc ec 97 3c ee 3e 04 3d 46 4b 73 3d 77 0d 13 bd
       0.01854556 0.032286577 0.05939796 -0.035901513
0001c0 d2 56 28 bd ea ce 80 3d 0c d7 89 bd ed 1c c0 3c
       -0.041098423 0.06289466 -0.0673047 0.023451293
0001d0 5e 19 79 bc 39 e6 be bd b3 4e 99 bb b8 08 0a bd
       -0.015203802 -0.09321255 -0.004678571 -0.03369972
0001e0 a2 77 aa bc 5d 62 4e bb 34 99 57 3c be 73 ac bc
       -0.020808998 -0.0031491735 0.013159085 -0.021051284
0001f0 4c 95 d6 3c 69 fe d0 bc 95 ae 74 3d a4 3b e2 ba
       0.026194237 -0.025511937 0.059736807 -0.0017260206
000200 d8 45 0e 3d aa 45 b2 3b 81 78 a8 3c 14 b5 0a 3d
       0.034734577 0.0054404335 0.020565273 0.033864096
000210 50 7d 49 bd d9 49 6d bb 39 9e df 3b 67 b0 9e 3c
       -0.049191773 -0.0036207347 0.0068242815 0.019371225
000220 0d 67 01 be f9 19 47 bd fc fe 4d 3c f4 39 13 bd
       -0.12636967 -0.048608754 0.012573 -0.03594394
000230 cd 40 9e bc d9 b0 d6 bd 3a 07 4d bd 7d 1d 22 3c
       -0.019318009 -0.1048295 -0.05005572 0.009894726
000240 82 bd 50 3c 79 d8 b2 3c 12 93 bd 3b 3f c5 0e 3d
       0.012740495 0.021831738 0.0057853544 0.034856077
000250 ed 21 43 bd 19 88 f9 bc d2 81 b2 3a 73 8c 9b 3c
       -0.047639776 -0.030460404 0.0013619012 0.01898787
000260 e9 73 1d 3d 08 dd 8a 3d 80 e1 dd 39 67 38 69 3c
       0.03844062 0.067804396 0.00042320415 0.014234639
000270 66 1c 98 bd cd 58 07 3b f8 cb ac 3c ad f0 86 3c
       -0.074272916 0.0020652295 0.021093354 0.016472185
000280 48 05 6a 3c 5e b7 3d bb 23 e6 24 3d 3d 9f 9d 3c
       0.014283486 -0.0028948407 0.040258538 0.01924097
000290 e6 d6 d4 3c 07 29 dc bc 5a 28 b5 bc c8 3e 8f 3c
       0.025981378 -0.026875032 -0.022113968 0.017485991
0002a0 ec aa a4 3c 7b 17 ae bc f5 7e e1 bb ad 0d 37 bc
       0.020101033 -0.02125143 -0.0068815895 -0.011172694
0002b0 5e 52 48 3d 2a 05 c9 bd ce 9e 6a bd 25 9f 70 bd
       0.048906676 -0.09815438 -0.057280354 -0.058745522
0002c0 9a b7 31 bd e5 d1 b2 3c 11 33 67 bd e1 e5 84 bc
       -0.043387987 0.021828601 -0.056445185 -0.016222896
0002d0 09 c8 8a bc 90 64 e1 3d 3f 77 82 3b 27 19 85 bc
       -0.016941087 0.11005509 0.0039815004 -0.016247345
0002e0 fb e9 07 bb d9 65 16 3c 98 9d 51 3d fc dd 56 3d
       -0.0020738828 0.009179556 0.051175684 0.052457795
0002f0 0f cb 34 3c 74 06 b6 3c b0 02 00 bc e5 ea e8 3b
       0.011034741 0.022219874 -0.007813141 0.0071080797
000300 d1 22 9c 3c 00 d2 da 3c 08 ab 13 bb c6 bf 9c bd
       0.01905957 0.026711464 -0.0022532362 -0.076537654
000310 10 20 f4 bc 8f 8f 2c 3d ef c3 2d bc 68 77 0d ba
       -0.029800445 0.042129096 -0.010605796 -0.0005396516
000320 09 99 d3 3c dd f8 a3 3c 9f 8b a1 3b d8 d2 42 3d
       0.025829809 0.020016128 0.004929974 0.047564358
000330 14 b5 89 bd cb 27 1e 3d 95 01 87 3d 72 23 8b 3b
       -0.06723991 0.03861217 0.065920986 0.004246169
000340 c1 63 47 3c e5 c9 0b 3d e5 9b 6b bd f0 74 e5 3c
       0.012169779 0.03412809 -0.05752172 0.028009862
000350 a2 65 da 3c de cf 3c 3c cf 39 e4 bc 01 96 dc bc
       0.02665979 0.011524169 -0.027859597 -0.026926996
000360 91 34 36 3d 97 97 6b bc f2 ad db 3b b5 50 10 3d
       0.044483725 -0.014379404 0.0067040855 0.03523322
000370 b4 cc 4b bd 1c 06 87 bd a4 ff 9b 3d 39 5e 8d 3c
       -0.049755767 -0.06592962 0.07617119 0.017256843
000380 2a e4 2a bc 9f 4d 01 bd 00 a6 9f 3c 4d 8f 31 bc
       -0.010430375 -0.031568166 0.019488335 -0.010837388
000390 cf c6 3d 3d 89 05 9a bc 12 e8 9c bb 36 3f 15 3c
       0.046332177 -0.018801467 -0.004788407 0.009109309
0003a0 e4 bf 19 3d 85 81 1d bd f7 6b 20 3c da 36 fa bb
       0.037536517 -0.038453598 0.009791366 -0.0076359333
0003b0 f5 32 7f bd c1 56 48 bb c2 ff 12 bc 75 b0 00 bc
       -0.062304456 -0.0030569287 -0.00897211 -0.007854571
0003c0 2b 98 d6 3c 5f 24 5b bd 6b f1 7e bd ca 83 12 bd
       0.026195606 -0.053501483 -0.062241953 -0.035770215
0003d0 1d c3 1f 3d 7b af 0e 3d 62 92 0b 3d 46 a9 68 bc
       0.039004434 0.03483532 0.03407515 -0.014200514
0003e0 63 45 6f 3d f4 c7 cb 3c 45 28 28 bb a2 b5 66 bb
       0.05841578 0.024875619 -0.0025658768 -0.0035203476
0003f0 95 35 b9 3d 37 ae c9 bb 61 9f 84 3d d9 a9 ed 3b
       0.09043423 -0.006154801 0.064757116 0.0072529134

feature_maps.0.bias f4 [64]
000000 4b 70 8c 3c 2a 95 22 bc af a7 7b 3c ea a2 c9 3b
       0.01714339 -0.009923259 0.015359803 0.006153454
000010 09 e4 90 3c 72 75 c9 3b 31 78 8b bb b3 aa 02 bc
       0.01768686 0.006148034 -0.0042562713 -0.007975268
000020 63 fc 1d bc 13 c5 64 3c cb 62 6b bb f1 95 2f bc
       -0.009642693 0.013963002 -0.003591704 -0.010716901
000030 40 f9 42 bc 7e 28 0b bb 8f 46 3a bc 23 d5 94 3b
       -0.011900246 -0.0021233852 -0.011369362 0.0045420094
000040 8e 3e 72 3c 26 7c 74 bc 02 63 1d 3c 4a df 3a bc
       0.014785422 -0.014922177 0.009606125 -0.011405775
000050 c0 47 2c bc 66 19 23 3c 76 70 f7 bb c7 e5 52 bc
       -0.010515153 0.009954786 -0.007551248 -0.012872166
000060 b6 d5 c3 bc d3 53 44 3c 23 38 7b 3b fd 1f a1 bc
       -0.023905616 0.011982876 0.003833302 -0.019668574
000070 68 b1 44 3a ed 0c 1d 3c 3f 1b 81 3b ad 09 0f bb
       0.0007503242 0.009585601 0.0039400156 -0.0021825836
000080 32 d6 e5 3c 3e 3e a9 bb aa ed eb 3b 12 e9 3c 3a
       0.028056238 -0.0051648906 0.0071999626 0.0007206361
000090 1e e0 89 3b 28 86 49 bb 11 a1 11 3a be ba a1 bb
       0.004207625 -0.003075013 0.0005555312 -0.0049355915
0000a0 62 31 b2 3b 35 d5 0d bc e0 6d 27 bc ab d5 b8 bc
       0.005438016 -0.00865679 -0.010219067 -0.022562822
0000b0 fa 91 60 bc 4a 34 83 3b 35 50 b2 bb ac d7 4e bc
       -0.0137066785 0.004004036 -0.0054416903 -0.012624662
0000c0 88 5b 4e bb 63 5d fb 3b 97 6a 4e 3c ef 14 22 bd
       -0.0031487662 0.0076710447 0.012598655 -0.039570745
0000d0 ad e2 02 bc 41 4a 3b 3b 39 f0 34 3c 67 a3 3a bc
       -0.007988614 0.0028578194 0.011043602 -0.011391497
0000e0 de e3 50 bc 2d 43 c0 bb b4 c1 6b 3b a4 38 5b 3b
       -0.01274964 -0.005867383 0.003597361 0.0033450508
0000f0 22 92 bf bb bc 01 24 bc a3 3b 69 3c e5 30 10 bc
       -0.005846278 -0.010010179 0.01423541 -0.00880072

feature_maps.2.weight f4 [32, 64, 3, 3]
000000 c8 b9 27 be 4e ad ab 3d 52 8b 1b 3d 13 40 85 bc
       -0.16379464 0.083826646 0.037974663 -0.016265905
000010 4a 33 b5 bd 1a 3c 49 bd 9c 45 ef bb 63 8a 2b 3d
       -0.08847673 -0.049129583 -0.0073019993 0.041880023
000020 8c d5 86 3d 64 5d d9 3d ec f0 92 bd 41 67 00 3e
       0.065836996 0.10613516 -0.071748585 0.12539388
000030 3b f0 83 bb 6f 99 1c 3e 92 ca 1b 3e 73 f9 0c bd
       -0.0040264404 0.15292905 0.15213993 -0.03441758
000040 6a 9a 7e 3d ae e6 2c bc 68 9a be bc de 19 2a 3e
       0.06215898 -0.010553045 -0.023266986 0.1661143
000050 4c 52 6b 3d 39 3b a7 bd 5c a3 ff bc 06 e6 9d bd
       0.05745153 -0.08165593 -0.031205826 -0.07709889
000060 c9 5d 1b 3e b5 fc 38 38 0d 92 f4 bc bf ae 04 bd
       0.15172495 4.410437e-05 -0.029854799 -0.032393213
000070 10 70 42 bc 26 21 38 3c 6d 82 84 3d d6 fa 0c bd
       -0.011867538 0.011238372 0.06470189 -0.034418903
000080 d1 63 9e bd cd ce fd 3c 99 b0 6e 3c 47 65 d3 3b
       -0.07733882 0.0309824 0.014568471 0.006451282
000090 99 31 bd bc 2c 56 d5 bd 1d 1f c8 bd 1c f6 6c 3d
       -0.023094939 -0.104168266 -0.097715594 0.057851896
0000a0 69 d8 9c 3c 06 cf 32 ba 7e 9b 4c 3c 8d 0f 5a 3d
       0.019146161 -0.000682101 0.012488244 0.053237487
0000b0 0d ec 8b 3d 10 86 25 be 06 0e 97 3d 00 5e b0 bc
       0.068321325 -0.16164422 0.07375722 -0.021529198
0000c0 9c 44 6c 3b 75 79 c7 bd 81 81 0c 3c 26 cd b5 3d
       0.0036051637 -0.09739963 0.008575798 0.088770196
0000d0 4e 78 60 3d 81 85 19 3d 9e 8e 97 bb 67 fd 0e bc
       0.05480223 0.037480835 -0.0046251556 -0.008727408
0000e0 8b cd 66 bd 00 f8 d3 bd 31 f1 cf bd 64 5a e8 3d
       -0.056348365 -0.103500366 -0.101534255 0.11345366
0000f0 6c 91 96 bd 69 3f 28 bc fd 3c a2 bc 10 a7 59 bb
       -0.07351956 -0.010269024 -0.019804472 -0.003321115
000100 38 ac 4a be ed 0a 25 3c 05 89 01 3c bf f0 d2 bd
       -0.19792259 0.010073406 0.007906203 -0.10299825
000110 d5 8a fa 3d 16 8b 2b 3e 06 54 d0 3d c7 ec 41 3e
       0.12233511 0.16752276 0.10172276 0.1893798
000120 58 03 fc 3c c0 d2 d2 bd ba c4 0c 3c 9f f0 3f bd
       0.030763313 -0.102941036 0.008591825 -0.046860334
000130 fa b9 9d 3d 74 e2 1b bd ff b4 8c bc 5b 3f 4e 3d
       0.07701488 -0.03805776 -0.01717615 0.05035339
000140 f5 d0 9d 3b 7e f0 c5 bd 79 33 6f 3d 7e 83 b8 bc
       0.0048161694 -0.09665011 0.058398698 -0.022523638
000150 aa 3e 87 bd 61 e1 ae 3c 46 c4 f9 3d 6a a0 9d ba
       -0.06603749 0.021347703 0.12195639 -0.0012025957
000160 60 45 cf bd c5 22 26 3e 9c 4c 5a 3e 74 ba 44 be
       -0.10120654 0.16224201 0.21318287 -0.19211751
000170 e9 37 fb bc ad 93 1b bd 30 6f 31 be 76 9e 92 3b
       -0.030666308 -0.03798263 -0.17327571 0.0044744564
000180 df 40 4c 3e 50 00 b6 3c 3e aa 16 3d a7 bd 42 be
       0.19946621 0.022216946 0.03678345 -0.19017659
000190 88 0b 1e be 44 d6 72 3d c9 8f 35 bd c4 0f d0 bd
       -0.15434086 0.05928637 -0.044326577 -0.10159257
0001a0 a9 24 a5 bd 3a 27 0c 3e a5 be fa bd 63 7b 6a bc
       -0.08063633 0.13686839 -0.12243394 -0.014311644
0001b0 7f 7c 57 3d d5 a0 a5 bd ed 04 8b 3d 59 d7 d2 bd
       0.052608963 -0.08087317 0.06788049 -0.102949806
0001c0 6a 40 33 be 4b 2c 4f bc 86 5e ca bc 42 7f a6 3c
       -0.17505041 -0.012644838 -0.024703275 0.020324353
0001d0 ab 59 0d be 86 f2 62 3d 04 cb b5 bc 3a 83 4b bd
       -0.13803737 0.05540707 -0.022191532 -0.049685694
0001e0 af d2 73 bd b4 82 1d bd 43 93 8d 3d 7d 0d ba bd
       -0.059527095 -0.038454726 0.069128536 -0.09084604
0001f0 20 41 86 bc 6a 67 bd 3b a0 22 51 bd 86 c4 51 3e
       -0.016388476 0.00578015 -0.05105841 0.20485124
000200 ee 1e 0e bd 6e a9 43 3d 04 86 86 3d 14 a4 e8 bd
       -0.034697466 0.047769003 0.0656853 -0.113594204
000210 a7 b7 4b bd 47 23 9f 3d 60 ca ff bc 8e 85 a1 bd
       -0.04973569 0.077704005 -0.03122443 -0.07886802
000220 04 ef d0 3d 98 7d e0 bd 3b eb 89 3c 8e a0 cf 3d
       0.102018386 -0.10961455 0.0168358 0.10138045
000230 6b 93 a4 bd 9e 45 8d bd 18 69 25 3e 9a a9 bf 3d
       -0.0803593 -0.06898044 0.16153371 0.09358521
000240 c1 2b 05 3d 6b b6 77 3d 55 69 da 3c 66 7f 13 3e
       0.03251243 0.0604767 0.026661554 0.14404067
000250 43 c9 e9 bc 26 b8 a1 3d 82 42 73 bc 6a a1 b5 3d
       -0.028538352 0.07896452 -0.0148474 0.08868678
000260 a1 bc 72 bd 6b ad 03 bd bf 91 03 3e 85 bc 3c 3d
       -0.05926192 -0.032147806 0.12848566 0.046078224
000270 51 f9 a3 bc fb 35 1b be 78 41 8c 3c 6b 17 ae bd
       -0.020016344 -0.1515731 0.017121062 -0.085005604
000280 ee 23 c1 bd 65 1f 6b 3d 28 01 db 3d d0 31 a7 bd
       -0.09430681 0.057402987 0.1069358 -0.08163798
000290 c6 52 9d 3c fd 75 0b 3d 35 59 0d be e0 59 0c 3e
       0.019204509 0.03404807 -0.13803561 0.1370616
0002a0 cc 9a 1d be cb f8 7a 3d ca 75 af be 84 d9 81 3a
       -0.15391082 0.061272424 -0.34269553 0.0009906744
0002b0 3e 95 0f 3e ad e3 aa 3d 8e 1b 4c 3d 59 ec bb bd
       0.14021775 0.08344207 0.049830966 -0.09175939
0002c0 ac 63 b9 3c 62 fe 98 bd 5b 6c 70 3d 30 29 fb 3c
       0.022630535 -0.07470395 0.058697086 0.030659288
0002d0 13 9b 5a 3e fb 10 29 3d e4 03 e3 bc de d6 0a be
       0.21348219 0.04127596 -0.027711816 -0.13558528
0002e0 11 52 79 3e a7 55 7b bd 41 bb 89 bc 0d 5a 2c be
       0.24347712 -0.06136098 -0.016812922 -0.16831227
0002f0 ef b1 fc 3d 1c 22 45 bd 5e 2b 85 3c c0 33 c4 3d
       0.12338626 -0.048128232 0.01625603 0.09580183
000300 13 b6 d7 3d 58 fe a9 3d ea 9f 4f 3d 93 9a b9 bd
       0.10532775 0.08300465 0.050689615 -0.09062686
000310 d0 5d 94 bd 27 6a 41 3e 64 27 33 3d 56 da 84 bd
       -0.07244456 0.1888815 0.043738738 -0.06486957
000320 41 1e 31 3d a5 18 12 bd 51 5e da 3c 5c 07 a9 bd
       0.043241743 -0.035668034 0.026656302 -0.08253357
000330 f9 32 fc bc 4f f0 b8 bd dc a8 39 3d 40 bf fa 3d
       -0.030786024 -0.0903021 0.045327052 0.12243509
000340 29 8a 6b bd d4 1f 31 3c 63 18 37 bd 48 13 a7 bc
       -0.057504807 0.010810811 -0.04470099 -0.020394936
000350 22 46 41 3d cc 24 b7 bd 60 b9 9f 3d 21 43 18 be
       0.047186024 -0.08942565 0.07799029 -0.14869358
000360 6d 17 cf 3a 03 8e 06 3e 88 66 fb 3d 58 5a 8e 3d
       0.0015799828 0.1314011 0.12275416 0.069508255
000370 e9 1d f5 bd bf 2a 21 bd 3d 22 0c 3e 3b 33 d8 bd
       -0.119685955 -0.039347406 0.13684936 -0.105566464
000380 ca 5b 55 3c 33 75 7d bd fa 79 5c bc 05 51 00 be
       0.0130223725 -0.061879348 -0.013456816 -0.12530906
000390 47 60 b8 bc ed 67 c5 3d 1d d7 cc bc a2 80 00 be
       -0.022506846 0.09638963 -0.025004918 -0.1254907
0003a0 4e 1c 8c 3d cf a7 d6 3d 69 11 c8 bd 7c 7d 34 bd
       0.06841336 0.10481226 -0.09768946 -0.044064984
0003b0 74 f5 a1 3d cb ff c5 3c 79 3f 0c 3e 67 b7 f4 bb
       0.079081446 0.024169823 0.13696088 -0.0074681523
0003c0 77 19 6c bd f2 cf e9 3d ac e4 8e bd 06 93 8a 3c
       -0.057641473 0.114166155 -0.069772094 0.01691581
0003d0 75 90 3d 3c 80 1a 13 3e c4 29 e5 bc 17 44 f6 3c
       0.011570086 0.14365578 -0.027974017 0.030061765
0003e0 de 76 09 be f0 d9 86 3d 92 45 26 3e 38 b0 ca bc
       -0.1342425 0.06584537 0.16237476 -0.02474223
0003f0 05 71 df 3c eb 1f ab bd f0 d2 87 bc 58 33 d3 3b
       0.027275572 -0.08355697 -0.016580075 0.0064453296

feature_maps.2.bias f4 [32]
000000 dc be 4f bc 4a 26 2e 3c 25 19 7f bb a7 93 31 bc
       -0.012679782 0.010629246 -0.00389249 -0.010838426
000010 6e c6 3c bc 6d a7 48 3c b3 bc 42 bc 2b c6 11 bc
       -0.011521919 0.012246949 -0.01188581 -0.008897345
000020 ae a0 61 bb 7b 8f c2 3b 28 d8 a6 3b b9 aa d4 bb
       -0.0034428048 0.0059375144 0.005091686 -0.0064900783
000030 28 1c e7 bb 86 c6 0a bc db 3e 6e bc 80 85 74 bc
       -0.007052917 -0.008470183 -0.014541353 -0.014924407
000040 54 dd a4 3b 4f 10 07 bc 87 d5 ca bb 78 37 83 3c
       0.005031267 -0.008243634 -0.006190005 0.01601766
000050 6f 7e 64 3c c0 48 f8 3b 55 ec 00 ba 6d 7b 34 3c
       0.01394616 0.007577032 -0.0004918029 0.011015755
000060 d6 d0 42 bc 28 5f 46 bc ef a5 7a 3c f3 1b 40 3c
       -0.011890611 -0.012107648 0.015298351 0.011725414
000070 e9 eb 2a 3b d6 c0 4e 3c f0 58 07 3c b6 75 16 bc
       0.0026080555 0.012619218 0.00826095 -0.009183338

sub_pixel.0.weight f4 [9, 32, 3, 3]
000000 fd 07 7d 39 0d d7 e2 bc f9 96 bd bb 82 70 3b 3b
       0.00024130936 -0.027690435 -0.0057858196 0.0028600995
000010 3e 23 28 bc 5b 9a 83 bc 36 34 a5 bb da 67 d8 bc
       -0.010262309 -0.016064813 -0.0050416244 -0.026416708
000020 36 4a a1 bc e3 9a 12 bd 40 dd 38 bc ff 8b ae 3b
       -0.019688707 -0.035792243 -0.011283219 0.0053267474
000030 df 56 11 bd dc 75 00 39 93 5d 63 3c de 9b 95 bc
       -0.035483237 0.00012250937 0.01387729 -0.0182628
000040 a4 d3 df 3c 58 a3 80 3c 3e 6a 52 bc 16 9a 1d bd
       0.027322598 0.015702888 -0.012842713 -0.038477026
000050 66 8c 29 3c 81 ae 2e bd a9 ed 7f bd dd 63 4a bc
       0.010348415 -0.04264689 -0.06248251 -0.012352911
000060 a2 3c 1b 3c 4a 09 0e 3d de 96 10 3c 68 77 3a bc
       0.009474905 0.034676827 0.008825032 -0.011381008
000070 a5 47 a8 bc 6d 80 57 bb 0e 28 22 bd 30 ad 1d bd
       -0.020541975 -0.0032882944 -0.03958898 -0.038495243
000080 8f 62 99 bc 54 13 f8 bb cc a9 b5 bc 36 70 8f bc
       -0.018723754 -0.0075706635 -0.022175692 -0.017509561
000090 95 c9 25 bd 8b dc 94 bc ee a0 74 bc 4a 89 b9 bc
       -0.040475447 -0.01817157 -0.014930947 -0.022648472
0000a0 27 3e ac bc 69 85 2d 3c cd 0e 3e bb 18 2b 90 bc
       -0.02102573 0.0105908895 -0.0029000521 -0.017598674
0000b0 65 e6 21 bb a2 c6 01 bc f2 d3 cf 3a 08 ff ae 3b
       -0.0024703976 -0.007920893 0.0015856011 0.0053404607
0000c0 62 fc 36 3d ea e0 23 3d 6b ca f5 3b c8 bc bb 3c
       0.044674285 0.040009417 0.0075009367 0.022917166
0000d0 ae 56 7a 3c f7 0f 89 3c f5 3e 65 bc 1c 38 44 bb
       0.015279455 0.016731245 -0.013992061 -0.002994067
0000e0 2f 61 10 3c 52 ff a7 bc 30 84 a3 bc 61 cc 9a bc
       0.008812233 -0.020507488 -0.019960493 -0.018896284
0000f0 9b 2a 9e bc 0c 66 0c bc 14 e0 0e bc c5 bb e2 ba
       -0.019307425 -0.008569252 -0.008720417 -0.0017298391
000100 43 9e b7 b9 c3 57 a4 3b 77 32 c4 bc 66 32 19 bd
       -0.00035022394 0.005015345 -0.023949845 -0.03740158
000110 dd f4 99 bc b6 33 bd bc 1c d3 a3 bc 77 ec 5b bc
       -0.018793518 -0.023095947 -0.019998126 -0.013423077
000120 13 fe 80 bc 0d 64 04 bd 0c b8 9e bb 70 6a e3 bc
       -0.015746152 -0.03232198 -0.0048437174 -0.027760714
000130 37 98 18 bd a7 17 26 bc 79 df 3b 3a de 94 7b bb
       -0.03725454 -0.010137475 0.0007166784 -0.0038388292
000140 63 9e 67 3b 44 8e 53 3c 51 5a 26 bc 8b 22 40 3c
       0.0035342209 0.012912337 -0.010153369 0.011726986
000150 d5 83 d8 3c 08 79 20 3c 21 a7 d1 3c 35 88 04 3c
       0.02643005 0.009794481 0.025592389 0.008089115
000160 5c 81 84 bc c6 3b da bb b2 60 cc 3b 55 2a 7b 3c
       -0.016174965 -0.0066599576 0.006237113 0.015329917
000170 3e 4c 5a bc 71 f7 ba 3b 0b f7 ee 3c 41 bd a3 37
       -0.013323842 0.005705767 0.029170534 1.9519242e-05
000180 8e fa 92 3b 42 51 b3 3c 4d fd 0e 3c 0c 07 17 3c
       0.004485435 0.021889333 0.008727384 0.009217989
000190 e9 ec a2 bc e9 86 10 3c 5a e4 fe b8 81 ef 08 bd
       -0.019888358 0.008821228 -0.000121541976 -0.033431534
0001a0 c3 3b 34 3c 46 00 9b 3b 12 65 d6 bc 08 f8 c0 bb
       0.011000576 0.004730257 -0.026171241 -0.0058889426
0001b0 a3 e7 39 bc a1 00 ec bc 5d e7 ef 3a 1e 37 b6 bc
       -0.01134673 -0.028808894 0.0018303205 -0.022243079
0001c0 7c e0 5b bd 0d 07 c5 bb 3d 9b 58 3b 9b 67 b0 bc
       -0.05368088 -0.0060128034 0.0033051514 -0.021533778
0001d0 cb 07 76 3c 05 7b 05 bb e6 4a cd bc 98 50 e9 3b
       0.015016506 -0.0020367515 -0.025060128 0.007120203
0001e0 d8 55 9e bc 37 3c 57 bd 73 30 79 bb c3 b1 94 bc
       -0.019328043 -0.05254766 -0.0038023263 -0.01815117
0001f0 c7 b7 ec bc f6 0e 0a bc 71 cb a9 bb 40 93 38 bc
       -0.028896226 -0.0084264185 -0.005181723 -0.011265576
000200 64 35 af ba 17 d9 52 bc 73 62 c1 bc f2 9e 25 bc
       -0.0013367352 -0.012869141 -0.023606515 -0.010108696
000210 e6 40 e4 bb 35 46 9d bc d5 56 ba bb 72 4a 03 3b
       -0.0069657443 -0.019198516 -0.0056866207 0.0020033387
000220 08 36 52 bc 35 13 09 bc 9c 02 69 bc 47 a2 0b bd
       -0.012830265 -0.008366396 -0.0142218135 -0.034090307
000230 c8 6e ae bc 20 6b 83 3b bf d9 78 bc 9c d4 bb bb
       -0.021293059 0.004010573 -0.015188633 -0.005732132
000240 79 8c b8 3c 2f 38 63 3d 60 e5 2b 3d 46 87 b7 3a
       0.02252792 0.055473503 0.041966796 0.0014002107
000250 c4 23 0a 3d 73 7d e3 3b 48 64 47 bc f9 c8 84 3c
       0.033725515 0.006942445 -0.012169905 0.016209112
000260 34 01 8a 3b a4 8f 13 bc 31 e6 d9 bc 16 85 bb 3b
       0.004211569 -0.009006415 -0.026599022 0.005722652
000270 7e 38 d6 bc da 72 25 bd c9 98 3a 3b 12 32 67 ba
       -0.026149984 -0.040392734 0.0028472415 -0.0008819412
000280 c0 1c 57 3b 5a a6 ee 3b 69 24 40 bc d3 8e 1f bd
       0.0032823533 0.0072830142 -0.011727431 -0.038954567
000290 b7 47 9c bc 1e e8 90 bc 6d 41 38 bd b6 b0 f4 bb
       -0.019077165 -0.017688807 -0.04498427 -0.0074673546
0002a0 06 54 6f bc 75 54 27 bd 51 64 a2 3a a5 de 38 39
       -0.014607435 -0.04085203 0.0012389516 0.00017630549
0002b0 42 86 e3 bb 52 26 89 3b 99 53 fb 3a 6d 52 48 3c
       -0.006943495 0.0041854763 0.0019174694 0.012226683
0002c0 a8 ff 86 3c 2c 11 a3 bb 05 f4 3a bb 17 b0 8b 3c
       0.016479328 -0.0049764123 -0.0028526795 0.01705174
0002d0 33 fb a3 3c b2 1d 66 3c 09 e3 98 3c f1 7f 25 3d
       0.020017242 0.014045166 0.018662946 0.040405218
0002e0 1b cf 19 3d 2b 97 fb 3c bc 18 0e 3c a6 c6 4a 3c
       0.037551027 0.030711731 0.008672889 0.012376463
0002f0 44 96 a0 3c d6 83 5f 3b c9 56 3d 3c 1f c2 01 bb
       0.019602902 0.003410568 0.011556336 -0.0019799543
000300 a3 46 07 bc 19 b7 70 3c 79 cd b3 ba 1e 4a 9f 3b
       -0.008256587 0.014692091 -0.0013717852 0.0048611304
000310 b8 15 a4 3c bf de 80 3c 2f e8 f9 bc 33 24 4c bd
       0.020029888 0.015731214 -0.030506222 -0.04983921
000320 6e d8 92 3b 13 db 8a bc 42 35 ea bb 26 3f b2 3c
       0.004481367 -0.016950166 -0.007147462 0.021758627
000330 5a dc 0d bc 96 95 67 3a 7d e8 ab 3c 4e 2b 72 ba
       -0.008658493 0.0008834241 0.020984882 -0.000923802
000340 02 be 81 3b 48 81 69 ba 80 76 cd 3b af 97 cb 3c
       0.0039594183 -0.0008907509 0.00627023 0.024852602
000350 8a 83 b6 3b 1c 0f 0a bb 99 45 b4 3b ad f9 1c 3c
       0.00556988 -0.0021066135 0.0055014607 0.009581012
000360 69 1d 22 3c ef ae 52 bc 72 6f 30 3b 37 6c 6f bc
       0.009894707 -0.01285909 0.0026921895 -0.014613203
000370 56 df fc bc ee d8 d1 bc 02 4d 0d b9 3e 18 30 bc
       -0.030868214 -0.025616135 -0.00013475496 -0.010747967
000380 cd cc 31 bc 7d 6a 1d bc 55 82 3e bc f1 d0 4d bb
       -0.010852051 -0.009607908 -0.011627753 -0.0031405056
000390 02 c1 1b bc 3d 2c 94 bc 2c 9e 2a bb b7 96 cb bb
       -0.009506466 -0.0180875 -0.002603422 -0.006213035
0003a0 72 8e 17 bc 87 fe 68 bc 04 b9 9f bc 11 61 0e bc
       -0.00925027 -0.01422084 -0.019497402 -0.008690135
0003b0 09 b7 e2 3b f9 15 df 3b f1 0b 78 3c 14 c0 98 3c
       0.006918792 0.0068080393 0.015139566 0.018646277
0003c0 9e 17 b9 b9 5f 59 5f 3c ce 12 18 3d 18 a0 fa 3b
       -0.00035303546 0.013632148 0.03712731 0.007648479
0003d0 b4 98 44 3c 5a 5a c7 3c b4 89 a8 3c ae fd f9 3c
       0.011999298 0.024335075 0.020573474 0.030516472
0003e0 80 ed 8e 3c 3b 4f 1d 3c 1c ec dc 3b b8 f0 b9 3b
       0.017447233 0.00960141 0.0067420136 0.005674448
0003f0 8f ce 13 3c d0 cc 0e 3d 88 9a c3 3b 48 fa ad 3c
       0.009021415 0.034863293 0.0059693493 0.021237507

sub_pixel.0.bias f4 [9]
000000 c9 d6 0f 3d b9 bb 04 3d 9a 6e 19 3d 43 d4 e3 3c
       0.035116944 0.03240559 0.037458993 0.027811175
000010 75 a2 cb 3c 6a 62 fd 3c ef d9 f2 3c ae da e2 3c
       0.024857739 0.030930717 0.029644934 0.027692165
000020 37 e4 06 3d
       0.032932486
