checkpoints/model_relu1.pth (torch, 93015 bytes, 6 tensors)

ESPCN_layer.0.weight f4 [64, 1, 5, 5]
0.026522845 -0.17927301 0.087565035 0.13560586 -0.027374526 -0.06856402 0.07144026 -0.1357499
0.074616104 0.18276605 -0.1686664 -0.191356 -0.04014435 0.18563038 -0.18798332 0.080386706
-0.00083127496 0.100643136 0.2021559 0.17215882 0.083691776 0.10634856 0.14031196 -0.17754322
-0.043424092 0.06501616 -0.18912868 0.1931586 -0.15922794 0.12842986 0.13948175 0.16485678
0.18762168 -0.04072901 0.058188133 0.19759493 -0.030503638 -0.17811085 0.17050052 0.15491009
0.13995759 0.01248736 -0.014096097 0.11128117 -0.051883414 -0.14749146 -0.059452843 0.0050101704
-0.03986916 -0.10131736 -0.20258833 -0.0033353386 0.18000486 -0.18321872 0.026960954 0.19060326
0.16894688 -0.12472031 0.11373928 -0.20224714 0.06593477 -0.033182364 0.100418486 0.046876494
-0.1342427 -0.05552821 0.096564025 -0.012533956 0.06868155 -0.011679081 -0.16849838 -0.022997092
0.17840439 -0.049861558 0.10388681 0.11112277 -0.0586364 0.19405742 -0.0707451 -0.15623729
-0.02102246 0.18739194 0.10157357 -0.12860842 0.15479377 0.18680917 0.11263821 0.0057785567
-0.028652659 0.072952464 0.18964396 0.14781694 0.13184232 0.19023117 0.17302126 0.15114114
-0.091276035 0.14677754 -0.1202345 -0.07957714 0.18102518 -0.15401094 -0.0635037 -0.115506984
-0.08032623 0.121241644 0.123738095 0.20380217 0.0630827 -0.035485685 0.040744398 0.026015291
-0.13397361 0.12284793 0.18641093 0.2001337 0.06778427 0.05942395 0.10624978 -0.07249066
0.1266145 0.039386563 -0.06319096 0.18379256 0.037409186 -0.048507266 -0.03644884 -0.036505584
-0.07434564 0.13054176 -0.080195196 0.052431718 0.16615123 0.027397506 0.04368885 0.14000739
-0.0014410798 0.23778483 -0.1565257 -0.088557154 -0.080670916 0.09608528 -0.03157712 -0.01249581
0.1864275 -0.12525974 0.11476679 0.16220038 -0.12459158 -0.040885855 -0.0073524555 0.11544096
0.056393687 -0.07938329 0.15238973 -0.047730207 -0.033838864 0.12931557 0.061997827 0.09939867
-0.07528044 0.024812128 0.05126461 -0.0018580965 0.18036608 -0.043611255 0.09225062 0.15228236
0.19323468 -0.043469857 0.1552346 -0.09254185 -0.02572057 -0.047658652 0.079524 0.10874074
-0.047692444 -0.103376284 -0.149619 0.16338146 0.08807867 0.044194076 0.20526344 -0.05331911
0.062206484 -0.16060473 0.07827731 -0.14375216 0.22839756 0.017998599 -0.14302224 0.20281732
-0.13377585 -0.032713607 -0.13387738 -0.0543035 0.16611397 0.063822016 -0.093860224 0.10970325
0.18026786 -0.06888459 0.00083190546 -0.15456551 0.015458337 0.2117616 -0.08894908 -0.20032981
0.02055956 -0.043748744 -0.07877581 -0.11219583 0.018604629 0.060093924 0.07950476 0.14245133
0.083997145 0.22529086 -0.12666778 -0.15104465 0.20191817 -0.13355397 -0.11145061 -0.11022124
0.031481203 -0.12481719 -0.034139033 -0.09111666 0.13393806 -0.12333062 0.13866535 0.0759506
0.19245781 -0.041968655 -0.17249352 -0.10062398 -0.09954844 0.1452496 0.0022172623 -0.1322204
0.13296777 0.20070767 0.11152896 -0.15596052 -0.017830478 -0.034471776 0.14752613 0.096635744
0.030982433 0.027312264 -0.17316052 0.08276755 0.16209856 0.0022941462 -0.12440965 -0.11618381
00000000: 7046 d93c 5893 37be 4c55 b33d 43dc 0a3e
00000010: 8b40 e0bc 4b6b 8cbd 454f 923d 0602 0bbe
00000020: 54d0 983d 0627 3b3e e2b6 2cbe d4f2 43be
00000030: 676e 24bd e415 3e3e b37e 40be c9a1 a43d
00000040: ebe9 59ba fd1d ce3d f501 4f3e 674a 303e
00000050: 9866 ab3d 46cd d93d f0ad 0f3e e4cd 35be
00000060: 76dd 31bd 3127 853d f3aa 41be 5ecb 453e
00000070: a60c 23be 1e83 033e 4ed4 0e3e 37d0 283e
00000080: e61f 403e 76d3 26bd ae56 6e3d 5356 4a3e
00000090: c4e2 f9bc b162 36be b097 2e3e c0a0 1e3e
000000a0: 0b51 0f3e c997 4c3c 51f3 66bc 62e7 e33d
000000b0: b483 54bd 0008 17be d384 73bd 5b2c a43b
000000c0: d84d 23bd 7a7f cfbd 5173 4fbe b295 5abb
000000d0: 3253 383e b09d 3bbe 38dd dc3c 802d 433e
000000e0: 6900 2d3e 5d6d ffbd 24f0 e83d e019 4fbe
000000f0: cf08 873d 3bea 07bd 35a8 cd3d 9101 403d
00000100: eb76 09be 8c71 63bd 5cc3 c53d 395b 4dbc
00000110: eaa8 8c3d 9e59 3fbc d78a 2cbe 6664 bcbc
00000120: a4af 363e a23b 4cbd 9cc2 d43d 5694 e33d
00000130: b92c 70bd fdb6 463e cfe2 90bd abfc 1fbe
00000140: 4b37 acbc ace3 3f3e ce05 d03d edb1 03be
00000150: 4282 1e3e e74a 3f3e ddae e63d 0c5a bd3b
00000160: fbb8 eabc 1a68 953d 0732 423e 535d 173e
00000170: ac01 073e f6cb 423e 7c2c 313e bec4 1a3e
00000180: eeee babd da4c 163e 813d f6bd 57f9 a2bd
00000190: aa5e 393e 0bb5 1dbe 3a0e 82bd ed8e ecbd
000001a0: 1482 a4bd 8a4d f83d 666a fd3d 84b1 503e
000001b0: 8131 813d 7059 11bd 99e3 263d 051e d53c
000001c0: 6130 09be b297 fb3d 82e2 3e3e d9ef 4c3e
000001d0: 7bd2 8a3d 8766 733d 7c99 d93d fc75 94bd
000001e0: 3ba7 013e ce53 213d 436a 81bd 1e34 3c3e
000001f0: 603a 193d 8eaf 46bd 614b 15bd e186 15bd
00000200: 8742 98bd bdac 053e 613d a4bd a4c2 563d
00000210: 8c23 2a3e bc70 e03c 14f3 323d 195e 0f3e
00000220: 9de2 bcba de7d 733e 4648 20be 745d b5bd
00000230: cb36 a5bd 5cc8 c43d 0357 01bd 3abb 4cbc
00000240: dae6 3e3e 1744 00be da0a eb3d db17 263e
00000250: df29 ffbd ed77 27bd deec f0bb 4f6c ec3d
00000260: 11fd 663d b593 a2bd 0e0c 1c3e c080 43bd
00000270: 9f9a 0abd 4d6b 043e 6ff1 7d3d 8891 cb3d
00000280: a22c 9abd ce42 cb3c d7fa 513d 5f8b f3ba
00000290: e3b1 383e b7a1 32bd e5ed bc3d e8ef 1b3e
000002a0: 50df 453e 730d 32bd d2f5 1e3e 9586 bdbd
000002b0: f2b3 d2bc b835 43bd 7bdd a23d 77b3 de3d
000002c0: 2759 43bd f2b6 d3bd b935 19be 784d 273e
000002d0: 9762 b43d d904 353d 9430 523e 2465 5abd
000002e0: 3acc 7e3d 9175 24be db4f a03d c433 13be
000002f0: 0de1 693e cc71 933c 6c74 12be 58af 4f3e
00000300: 89fc 08be b4fe 05bd 2717 09be 596d 5ebd
00000310: c819 2a3e 1eb5 823d ca39 c0bd 19ac e03d
00000320: 2398 383e 5d13 8dbd 3b14 5a3a 6c46 1ebe
00000330: f744 7d3c 08d8 583e ef2a b6bd 4223 4dbe
00000340: 866c a83c e231 33bd 3655 a1bd edc6 e5bd
00000350: bc68 983c 0c25 763d 64d3 a23d c3de 113e
00000360: b206 ac3d a6b2 663e 33b5 01be 73ab 1abe
00000370: a3c3 4e3e 5fc2 08be 3840 e4bd acbb e1bd
00000380: 6ff2 003d 28a0 ffbd 5fd5 0bbd 5f9b babd
00000390: 0f27 093e c494 fcbd 4afe 0d3e fd8b 9b3d
000003a0: a913 453e 53e7 2bbd 24a2 30be f213 cebd
000003b0: 0de0 cbbd 50bc 143e 7d4f 113b c964 07be
000003c0: b428 083e 5086 4d3e 4c69 e43d 1db4 1fbe
000003d0: 3911 92bc 4732 0dbd 1711 173e f6e8 c53d
000003e0: dfce fd3c f8bd df3c fe50 31be 0982 a93d
000003f0: 2afd 253e 6359 163b 7dca febd c7f1 edbd

ESPCN_layer.0.bias f4 [64]
0.009458658 -0.055508416 0.13997987 -0.0965325 -0.076966144 -0.13640307 -0.010190573 -0.025709644
-0.034239504 0.062669575 0.1393551 -0.12027146 0.05898554 -0.101485714 0.15432075 0.16995788
0.059202984 0.013330404 0.05368226 0.08147646 -0.11087153 -0.044082668 -0.07077281 0.0046307137
-0.09320008 -0.13699797 -0.10307884 0.075968795 0.05874653 -0.101488285 -0.115366355 -0.07424082
0.0431382 0.12911166 -0.0698001 -0.041267972 -0.12952301 0.10497426 -0.04419169 -0.11408723
0.16695303 0.1505325 0.05257174 0.07127672 0.042749505 -0.05212964 0.039094754 0.13552348
0.069752276 0.071178705 -0.14351092 -0.04177617 0.028424392 0.11366883 -0.04598673 0.10589181
0.021676684 0.10096717 0.10017181 0.08457478 -0.20555362 0.11257543 -0.12906462 -0.07900565
00000000: 7df8 1a3c cb5c 63bd e256 0f3e d5b2 c5bd
00000010: 6da0 9dbd 3fad 0bbe 5cf6 26bc 089d d2bc
00000020: b93e 0cbd e858 803d 1ab3 0e3e e250 f6bd
00000030: d29a 713d bed7 cfbd 4206 1e3e 7009 2e3e
00000040: d47e 723d c467 5a3c eee1 5b3d 21dd a63d
00000050: 9d10 e3bd 0790 34bd 56f1 90bd 3ebd 973b
00000060: afdf bebd 3249 0cbe 001b d3bd 8795 9b3d
00000070: 34a0 703d 17d9 cfbd 3245 ecbd 920b 98bd
00000080: aeb1 303d d935 043e 5bf3 8ebd 9b08 29bd
00000090: aea1 04be bffc d63d 5802 35bd 91a6 e9bd
000000a0: bcf5 2a3e 3125 1a3e 7755 573d 87f9 913d
000000b0: 1b1a 2f3d e485 55bd d221 203d abc6 0a3e
000000c0: 48da 8e3d 24c6 913d 87f4 12be 7d1d 2bbd
000000d0: 45da e83c 34cb e83d 955c 3cbd cedd d83d
000000e0: 4d93 b13c e0c7 ce3d e126 cd3d 8b35 ad3d
000000f0: a67c 52be f28d e63d 8429 04be b7cd a1bd

ESPCN_layer.2.weight f4 [32, 64, 3, 3]
-0.01483251 -0.024273803 -0.010376612 -0.019936709 0.006830339 0.014815733 0.02057685 -0.012639638
-0.0140854325 0.044520613 -0.027700627 0.026908454 0.021637766 -0.043184094 -0.028878376 -0.030527676
0.051976256 -0.017841024 -0.034834296 0.032858603 -0.027732689 0.00076136796 0.043675434 0.03025968
0.03781781 0.018974626 0.030818805 0.038380265 0.044447802 -0.046738114 -0.011622583 0.05252171
0.014868288 0.021598723 0.057485588 0.0054667387 -0.0224871 0.035487603 -0.0359833 -0.0005356374
-0.036459126 0.01095553 0.0508706 0.016703721 -0.028228415 0.010776054 0.058672376 0.024746614
-0.009609652 0.044068165 0.0033566237 0.03465235 0.060121227 0.031247403 -0.02258463 0.0067246575
-0.005927746 0.027139401 0.008625813 0.021475555 0.0027703524 0.022336356 -0.008623008 0.011526292
-0.0057336604 -0.00010188799 0.013256127 0.025221763 0.033129755 0.030370615 0.011546369 0.044205006
-0.017841993 0.050134417 0.0036079704 -0.015266056 0.024135686 -0.085570745 -0.007844716 -0.07420535
-0.08034071 -0.027783388 0.03700141 0.00052559364 0.022694197 0.049037505 0.0193897 0.030841725
0.022562824 0.030442694 -0.014555497 -0.016348915 -0.024822054 0.06040453 0.059320625 -0.007867556
-0.031409606 0.032233875 -0.04979684 0.008935297 -0.047952995 -0.0148597425 0.023873338 -0.014288883
-0.026513318 -0.022377243 0.028110234 0.011624882 0.021901106 0.0013364028 0.00594318 -0.0006502328
0.01631464 -0.042173844 0.026401777 0.021144778 -0.01940756 -0.010724182 -0.0510714 -0.03039545
0.024323797 0.024509117 0.050052438 0.019271988 -0.06531675 -0.014723659 -0.029013641 0.0074092783
-0.04305538 0.017033957 0.040630728 -0.02166153 -0.025720512 0.010574822 0.014385731 -0.015143776
-0.029979302 0.017257575 -0.09606662 -0.005454428 0.02025279 -0.034832463 -0.002172 -0.021410882
0.0039159767 -0.031515483 -0.030314952 0.073161595 0.030855633 0.015828488 -0.002120021 -0.06795852
-0.051134 -0.0018738165 0.026648477 -0.009664726 -0.014165104 0.08603217 -0.02028399 0.06489249
0.031254463 0.07292215 -0.001603009 0.032795295 -0.0051976764 0.012433175 0.026387472 -0.0136084985
0.034950398 0.014395275 -0.014271108 -0.021227218 -0.028803308 -0.012500708 -0.023557711 -0.0008270789
-0.011487172 0.008291369 -0.0074268705 -0.02902085 -0.065965675 0.03560328 0.012494065 0.0015813155
0.028150193 0.0017828592 -0.010368338 0.0010782533 0.004430161 -0.037794273 -0.012309424 -0.04132971
-0.03214238 -0.007504042 0.007514693 0.0068568136 0.03645917 0.024255399 -0.032138593 -0.009242318
0.041308768 0.025895825 0.034247737 -0.04190656 0.028614689 0.0485349 0.0044906004 0.00785651
-0.0045366925 -0.004035321 -0.023000075 0.021039804 -0.023016391 0.03902593 0.024987033 0.030002847
0.028963411 -0.012532082 -0.0070245108 -0.03395884 -0.0041244277 0.0055707786 -0.03436195 0.027722957
0.03347696 0.0013625291 -0.031116342 -0.03527388 0.011717171 -0.015345486 -0.07213158 -0.024785064
-0.02360692 -0.032215573 -0.009933881 -0.050684128 0.012846444 0.0018376244 -0.033354737 0.026948005
0.029319841 0.017361091 -0.02839006 -0.017206723 0.028815964 0.004435176 0.04810492 0.03540496
0.031209415 0.0023774654 -0.029007353 0.014614473 0.022437515 0.03305883 -0.010238466 -0.0046254094
00000000: 0e04 73bc dbd9 c6bc aa02 2abc 4f52 a3bc
00000010: 09d1 df3b b0bd 723c c890 a83c 7c16 4fbc
00000020: 96c6 66bc 3f5b 363d 6dec e2bc 1e6f dc3c
00000030: af41 b13c cee1 30bd 5892 ecbc 2d15 fabc
00000040: 0ee5 543d 5727 92bc 68ae 0ebd be96 063d
00000050: aa2f e3bc 8a96 473a 03e5 323d 26e3 f73c
00000060: d9e6 1a3d ad70 9b3c b877 fc3c a034 1d3d
00000070: e60e 363d 7770 3fbd a56c 3ebc 0121 573d
00000080: 1f9a 733c ceef b03c 0276 6b3d 5422 b33b
00000090: de36 b8bc 735b 113d 3a63 13bd 046a 0cba
000000a0: 2a56 15bd d37e 333c b15d 503d 3ed6 883c
000000b0: 473f e7bc 0c8e 303c 7252 703d 69b9 ca3c
000000c0: cd71 1dbc d280 343d cdfa 5b3b 9fef 0d3d
000000d0: ad41 763d 8efa ff3c 6703 b9bc 845a dc3b
000000e0: 8a3d c2bb 7353 de3c 4853 0d3c 81ed af3c
000000f0: cd8e 353b bcfa b63c 8447 0dbc c6d8 3c3c
00000100: 6ee1 bbbb b3ac d5b8 3a30 593c df9d ce3c
00000110: 11b3 073d cccb f83c fb2c 3d3c 4f10 353d
00000120: 5f29 92bc bf59 4d3d b373 6c3b 7b1e 7abc
00000130: 34b8 c53c b73f afbd 2087 00bc f9f8 97bd
00000140: ac89 a4bd fd99 e3bc ca8e 173d fec7 093a
00000150: 2ee9 b93c 8ddb 483d 26d7 9e3c c9a7 fc3c
00000160: acd5 b83c f562 f93c 2e7a 6ebc 29ee 85bc
00000170: 9f57 cbbc be6a 773d 2ffa 723d ece6 00bc
00000180: 5ca7 00bd ab07 043d c5f7 4bbd 5a65 123c
00000190: 5c6a 44bd 4776 73bc 0592 c33c eb1b 6abc
000001a0: 7532 d9bc 7b50 b7bc 6f47 e63c 4a76 3e3c
000001b0: f369 b33c 3d2a af3a 02bf c23b 6274 2aba
000001c0: 48a6 853c 7bbe 2cbd 8a48 d83c d037 ad3c
000001d0: 9afc 9ebc 7bb4 2fbc 3f30 51bd e1ff f8bc
000001e0: b342 c73c 58c7 c83c c903 4d3d 4ae0 9d3c
000001f0: cac4 85bd 803b 71bc 04ae edbc 88c9 f23b
00000200: d75a 30bd cc8a 8b3c 686c 263d 8573 b1bc
00000210: d3b3 d2bc 0542 2d3c 21b2 6b3c 9a1d 78bc
00000220: 2797 f5bc c25f 8d3c 93be c4bd 0fbb b2bb
00000230: 2ee9 a53c 7cac 0ebd 1d58 0ebb e065 afbc
00000240: 9851 803b 6116 01bd 1057 f8bc bfd5 953d
00000250: f4c4 fc3c bfaa 813c 0df0 0abb d62d 8bbd
00000260: e371 51bd d99a f5ba e84d da3c cd58 1ebc
00000270: c114 68bc a231 b03d 9c2a a6bc 5be6 843d
00000280: ae04 003d 3558 953d 0e1c d2ba 5c54 063d
00000290: 4551 aabb 84b4 4b3c 8a2a d83c 2ef6 5ebc
000002a0: 2628 0f3d 29da 6b3c 5ed1 69bc b4e4 adbc
000002b0: eaf4 ebbc c5cf 4cbc 1afc c0bc 53d0 58ba
000002c0: b134 3cbc 86d8 073c 1b5d f3bb 22bd edbc
000002d0: 0319 87bd bfd4 113d e8b3 4c3c 2544 cf3a
000002e0: 3c9b e63c d4ae e93a f6df 29bc 2d54 8d3a
000002f0: e22a 913b 2bce 1abd 77ad 49bc 5849 29bd
00000300: baa7 03bd 77e4 f5bb d03d f63b 1faf e03b
00000310: 3656 153d 42b3 c63c c2a3 03bd 176d 17bc
00000320: 6233 293d 7b23 d43c 5b47 0c3d 37a6 2bbd
00000330: 5a69 ea3c 88cc 463d e325 933b 97b8 003c
00000340: 89a8 94bb ba3a 84bb a76a bcbc ab5b ac3c
00000350: df8c bcbc a7d9 1f3d 9bb1 cc3c 88c8 f53c
00000360: ad44 ed3c 5d53 4dbc de2d e6bb 6d18 0bbd
00000370: 3526 87bb 148b b63b 1ebf 0cbd 411b e33c
00000380: 231f 093d e496 b23a b3e7 febc 587b 10bd
00000390: 61f9 3f3c a26b 7bbc b9b9 93bd 0c0a cbbc
000003a0: 4d63 c1bc 7af4 03bd b8c1 22bc 299a 4fbd
000003b0: e479 523c 71dc f03a fa9e 08bd 10c2 dc3c
000003c0: 2a30 f03c d938 8e3c 4592 e8bc 1df5 8cbc
000003d0: 750f ec3c f454 913b aa09 453d cb04 113d
000003e0: e3aa ff3c 40cf 1b3b d4a0 edbc 8b71 6f3c
000003f0: e1ce b73c b268 073d 3dbf 27bc bf90 97bb

ESPCN_layer.2.bias f4 [32]
0.013465259 0.007882746 -0.009232044 -0.015603272 -0.02209759 -0.028336486 -0.021551747 0.03388066
-0.019862527 -0.013710433 0.016142642 -0.009803609 0.048379485 0.035708193 0.03943108 -0.020981142
0.019345297 -0.029990448 0.04393597 -0.0065465863 -0.035735156 0.047011323 -0.021270573 -0.025825584
-0.029801754 0.03509555 -0.0371947 -0.02333841 0.0049680322 0.024615703 0.06500791 0.033009943
00000000: 649d 5c3c a226 013c 0042 17bc dea4 7fbc
00000010: 0106 b5bc eb21 e8bc 4a8d b0bc 72c6 0a3d
00000020: bdb6 a2bc b9a1 60bc 933d 843c 519f 20bc
00000030: 9129 463d c142 123d 7c82 213d a5e0 abbc
00000040: 077a 9e3c 87ae f5bc 34f6 333d bf84 d6bb
00000050: 075f 12bd f28e 403d a03f aebc 2d90 d3bc
00000060: cf22 f4bc 5ac0 0f3d 7859 18bd 3130 bfbc
00000070: e0ca a23b dfa6 c93c de22 853d 6f35 073d

ESPCN_layer.4.weight f4 [9, 32, 3, 3]
9.064273e-06 0.014214517 0.00897574 0.08663812 0.07926507 0.03824984 -0.0785093 -0.011030687
0.0015095928 -0.0024198932 0.052255444 -0.04126935 0.0015413314 0.033006445 0.035374492 0.030600075
0.0014307343 -0.042485952 0.023183422 -0.009805421 -0.048764147 0.023592964 0.042977203 0.027250133
0.04006815 -0.026391493 0.050713763 -0.020177362 0.0057766885 0.03071591 0.010453181 0.063597664
0.05712309 0.0072219647 0.045059435 -0.03882286 -0.0155396 0.01911479 0.011585297 -0.031818327
-0.06347734 0.020663356 -0.060795475 0.011675808 0.0032326453 -0.015737511 0.051930938 0.026758064
0.018566726 -0.006167092 -0.009186322 0.029912673 -0.040924013 -0.055436935 -0.066486076 -0.0004762181
-0.0012861685 -0.13171695 0.050255172 0.0029370086 0.04883801 -0.026954878 0.0043277824 -0.051589645
0.00086563535 0.009365365 0.008289291 0.044635195 0.06524329 0.025927518 -0.00046799806 -0.028159354
0.020148437 0.04863186 -0.014390418 -0.04201658 -0.024590472 0.05880497 0.043241154 -0.05492123
-0.01949576 -0.049792327 -0.013007411 0.044611856 -0.0432337 -0.02394889 0.012603458 0.03216621
0.03384696 0.027692284 -0.0059176898 0.024252413 -0.025095938 0.04346729 -0.016254276 0.029956063
0.01984482 -0.006527413 0.036851432 -0.008168837 0.14010948 -0.084127486 -0.0006427282 0.0018226405
-0.022811243 0.02128557 0.023886016 0.014152033 0.011994598 0.033972718 -0.05345212 -0.053789444
-0.016522603 -0.027760413 0.005612514 0.041858297 -0.01366889 0.017809693 0.05674573 -0.028034542
-0.020313587 0.036210384 0.05330792 -0.029029077 0.05845454 -0.023362292 0.05589804 0.044640865
-0.041292228 -0.03383153 -0.0006282003 0.03767434 0.022552427 -0.018351205 0.030378323 -0.024074335
0.009861697 -0.05477088 0.018586747 -0.057159476 0.0036422529 -0.01479916 0.034318123 -0.041220523
-0.060285714 0.057895564 0.050591946 -0.028376421 0.019725446 0.05277675 -0.020097531 0.07299076
0.04808919 0.028474594 -0.03195701 0.05852508 -0.0017455674 -0.044373166 0.044064585 -0.009851337
-0.014041061 -0.004867266 0.035498947 -0.032123353 0.006733436 -0.006711103 -0.032989126 0.033904597
0.013226709 0.06473293 -0.04678249 -0.027117377 -0.031558987 0.026067836 -0.0032172543 0.03371282
-0.054022755 0.08610075 0.060619075 -0.03548824 0.022044221 0.017729443 -0.095204316 0.022763997
0.031619567 -0.0016597114 0.022691455 -0.031133238 0.01480283 -0.04577989 -0.02778765 -0.064174674
0.034098048 0.049394842 -0.019450963 -0.025025215 0.023719907 0.02508042 0.05371056 0.04068927
0.054988775 -0.004182279 0.06683936 0.01958245 0.023210399 -0.03304546 -0.044909198 -0.013095146
0.022806212 0.04845088 0.03439902 -0.029101994 0.0036792636 -0.011702926 -0.00065535726 0.055376798
-0.03381788 0.051673003 0.027059104 -0.043095686 -0.042619962 -0.024150528 0.015480079 -0.008264008
-0.050966877 -0.02837472 -0.03476356 -0.013939956 0.012628081 -0.0097240815 0.032842755 -0.030252736
-0.028896268 -0.027933374 0.05800293 -0.033030905 0.043142296 -0.018139197 -0.037836317 -0.022285229
-0.041973118 -0.036976974 -0.025122842 0.04231303 0.023920892 -0.025905998 -0.0051443926 0.00805135
0.04623501 0.04305871 -0.0136587275 0.052033562 0.014006386 0.06538783 -0.025555192 -0.053138077
00000000: c212 1837 01e4 683c fb0e 133c 546f b13d
00000010: ba55 a23d ddab 1c3d 7cc9 a0bd 0eba 34bc
00000020: 87dd c53a 1297 1ebb ce09 563d 0d0a 29bd
00000030: 8006 ca3a c431 073d d8e4 103d 02ad fa3c
00000040: 7a87 bb3a c005 2ebd 29eb bd3c eba6 20bc
00000050: eabc 47bd 0846 c13c dd08 303d ac3b df3c
00000060: 801e 243d f932 d8bc 3cb9 4f3d ff4a a5bc
00000070: 604a bd3b ef9f fb3c d243 2b3c 7e3f 823d
00000080: e7f9 693d 3ba6 ec3b 3e90 383d b804 1fbd
00000090: ce99 7ebc 9f96 9c3c 42d0 3d3c ef53 02bd
000000a0: 6800 82bd 3346 a93c ad04 79bd e34b 3f3c
000000b0: cada 533b f4eb 80bc 89b5 543d ba33 db3c
000000c0: 3f19 983c 5115 cabb 3a82 16bc 6c0b f53c
000000d0: f09f 27bd d711 63bd da29 88bd e9ac f9b9
000000e0: a794 a8ba cfe0 06be 5ed8 4d3d d47a 403b
000000f0: 5d0a 483d 7ad0 dcbc 12d0 8d3b aa4f 53bd
00000100: ceeb 623a 3071 193c cecf 073c 65d3 363d
00000110: 469e 853d f265 d43c a35d f5b9 72ae e6bc
00000120: 560e a53c 3432 473d cac5 6bbc 9419 2cbd
00000130: f571 c9bc 7bdd 703d a31d 313d 15f5 60bd
00000140: 92b5 9fbc 0af3 4bbd 091d 55bc ecba 363d
00000150: d215 31bd 7630 c4bc bc7e 4e3c b7c0 033d
00000160: 1ca3 0a3d eeda e23c 2ee9 c1bb ffac c63c
00000170: ff95 cdbc c20a 323d b027 85bc 6b66 f53c
00000180: 9b91 a23c e9e3 d5bb 87f1 163d 96d6 05bc
00000190: dc78 0f3e 084b acbd c27c 28ba abe5 ee3a
000001a0: a5de babc 135f ae3c 9bac c33c eedd 673c
000001b0: fe84 443c fa26 0b3d 9cf0 5abd 5252 5cbd
000001c0: 695a 87bc ce69 e3bc 2ee9 b73b 9b73 2b3d
000001d0: 7bf3 5fbc a2e5 913c 366e 683d b2a8 e5bc
000001e0: ae68 a6bc 5751 143d 6859 5a3d 63ce edbc
000001f0: 076e 6f3d 4762 bfbc 58f5 643d 57d9 363d
00000200: 0a22 29bd ee92 0abd cfad 24ba 6950 1a3d
00000210: debf b83c 4455 96bc f6db f83c 8a37 c5bc
00000220: f592 213c 6e57 60bd 3c43 983c 0e20 6abd
00000230: ddb2 6e3b 2d78 72bc 2991 0c3d dad6 28bd
00000240: 27ee 76bd e623 6d3d 8039 4f3d ab75 e8bc
00000250: 4297 a13c 6f2c 583d 94a3 a4bc 2e7c 953d
00000260: 2cf9 443d 8d43 e93c 5be5 02bd ffb7 6f3d
00000270: 86cb e4ba a3c0 35bd 117d 343d 8167 21bc
00000280: 7a0c 66bc 967d 9fbb 5867 113d c793 03bd
00000290: 28a4 dc3b d0e8 dbbb 9b1f 07bd 8cdf 0a3d
000002a0: d7b4 583c b392 843d ff9e 3fbd 4325 debc
000002b0: ff43 01bd 378c d53c 92d8 52bb 7416 0a3d
000002c0: f746 5dbd 9755 b03d b54b 783d 1e5c 11bd
000002d0: 1596 b43c 563d 913c 7bfa c2bd 907b ba3c
000002e0: 8583 013d ac8a d9ba 6ee3 b93c 220b ffbc
000002f0: 9287 723c b283 3bbd eda2 e3bc 036e 83bd
00000300: 65aa 0b3d 3f52 4a3d a057 9fbc ae01 cdbc
00000310: 4050 c23c 7475 cd3c 9bff 5b3d cba9 263d
00000320: e93b 613d 800b 89bb 13e3 883d 606b a03c
00000330: bc23 be3c ad5a 07bd b5f2 37bd 068d 56bc
00000340: 18d4 ba3c 6e74 463d fde5 0c3d 4e67 eebc
00000350: cd1f 713b a1bd 3fbc 48cc 2bba c8d2 623d
00000360: 9e84 0abd 12a7 533d 0eab dd3c 1a85 30bd
00000370: 4592 2ebd 54d7 c5bc 28a0 7d3c c365 07bc
00000380: a5c2 50bd 1a72 e8bc 3c64 0ebd 6a64 64bc
00000390: 03e6 4e3c c151 1fbc 2086 063d 96d4 f7bc
000003a0: deb7 ecbc 88d4 e4bc 7b94 6d3d 6a4b 07bd
000003b0: fab5 303d a798 94bc 41fa 1abd 838f b6bc
000003c0: 01ec 2bbd 2b75 17bd 6bce cdbc 6e50 2d3d
000003d0: bff5 c33c d138 d4bc 4b92 a8bb cfe9 033c
000003e0: ec60 3d3d 545e 303d dbc8 5fbc 2521 553d
000003f0: 0a7b 653c 0eea 853d 1f59 d1bc 50a7 59bd

ESPCN_layer.4.bias f4 [9]
0.030134054 0.017237503 0.026425969 -0.011590877 0.052909337 0.054436162 0.02561697 0.039513446
0.007801695
00000000: b1db f63c aa35 8d3c 467b d83c a9e7 3dbc
00000010: 76b7 583d 74f8 5e3d aeda d13c dad8 213d
00000020: 5ca5 ff3b
